<?xml version="1.0" ?>
<net name="torch-jit-export" version="11">
	<layers>
		<layer id="0" name="input" type="Parameter" version="opset1">
			<data element_type="f32" shape="1,3,64,256"/>
			<rt_info>
				<attribute name="fused_names" value="431, input" version="0"/>
				<attribute name="old_api_map_element_type" value="f16" version="0"/>
			</rt_info>
			<output>
				<port id="0" names="431,input" precision="FP32">
					<dim>1</dim>
					<dim>3</dim>
					<dim>64</dim>
					<dim>256</dim>
				</port>
			</output>
		</layer>
		<layer id="1" name="MLM_VRM.Prediction.pp.f0_embedding.weight_compressed" type="Const" version="opset1">
			<data element_type="f16" offset="0" shape="26, 512" size="26624"/>
			<output>
				<port id="0" precision="FP16">
					<dim>26</dim>
					<dim>512</dim>
				</port>
			</output>
		</layer>
		<layer id="2" name="MLM_VRM.Prediction.pp.f0_embedding.weight" type="Convert" version="opset1">
			<data destination_type="f32"/>
			<rt_info>
				<attribute name="decompression" version="0"/>
				<attribute name="fused_names" value="MLM_VRM.Prediction.pp.f0_embedding.weight" version="0"/>
			</rt_info>
			<input>
				<port id="0" precision="FP16">
					<dim>26</dim>
					<dim>512</dim>
				</port>
			</input>
			<output>
				<port id="1" names="MLM_VRM.Prediction.pp.f0_embedding.weight" precision="FP32">
					<dim>26</dim>
					<dim>512</dim>
				</port>
			</output>
		</layer>
		<layer id="3" name="1002" type="Const" version="opset1">
			<data element_type="i64" offset="26624" shape="1, 26" size="208"/>
			<rt_info>
				<attribute name="fused_names" value="1002" version="0"/>
			</rt_info>
			<output>
				<port id="0" names="1002" precision="I64">
					<dim>1</dim>
					<dim>26</dim>
				</port>
			</output>
		</layer>
		<layer id="4" name="1040_compressed" type="Const" version="opset1">
			<data element_type="f16" offset="26832" shape="32, 3, 3, 3" size="1728"/>
			<output>
				<port id="0" precision="FP16">
					<dim>32</dim>
					<dim>3</dim>
					<dim>3</dim>
					<dim>3</dim>
				</port>
			</output>
		</layer>
		<layer id="5" name="1040" type="Convert" version="opset1">
			<data destination_type="f32"/>
			<rt_info>
				<attribute name="decompression" version="0"/>
				<attribute name="fused_names" value="1040" version="0"/>
			</rt_info>
			<input>
				<port id="0" precision="FP16">
					<dim>32</dim>
					<dim>3</dim>
					<dim>3</dim>
					<dim>3</dim>
				</port>
			</input>
			<output>
				<port id="1" names="1040" precision="FP32">
					<dim>32</dim>
					<dim>3</dim>
					<dim>3</dim>
					<dim>3</dim>
				</port>
			</output>
		</layer>
		<layer id="6" name="Convolution_211" type="Convolution" version="opset1">
			<data auto_pad="explicit" dilations="1, 1" pads_begin="1, 1" pads_end="1, 1" strides="1, 1"/>
			<rt_info>
				<attribute name="fused_names" value="Convolution_211" version="0"/>
			</rt_info>
			<input>
				<port id="0" precision="FP32">
					<dim>1</dim>
					<dim>3</dim>
					<dim>64</dim>
					<dim>256</dim>
				</port>
				<port id="1" precision="FP32">
					<dim>32</dim>
					<dim>3</dim>
					<dim>3</dim>
					<dim>3</dim>
				</port>
			</input>
			<output>
				<port id="2" precision="FP32">
					<dim>1</dim>
					<dim>32</dim>
					<dim>64</dim>
					<dim>256</dim>
				</port>
			</output>
		</layer>
		<layer id="7" name="Reshape_231_compressed" type="Const" version="opset1">
			<data element_type="f16" offset="28560" shape="1, 32, 1, 1" size="64"/>
			<output>
				<port id="0" precision="FP16">
					<dim>1</dim>
					<dim>32</dim>
					<dim>1</dim>
					<dim>1</dim>
				</port>
			</output>
		</layer>
		<layer id="8" name="Reshape_231" type="Convert" version="opset1">
			<data destination_type="f32"/>
			<rt_info>
				<attribute name="decompression" version="0"/>
			</rt_info>
			<input>
				<port id="0" precision="FP16">
					<dim>1</dim>
					<dim>32</dim>
					<dim>1</dim>
					<dim>1</dim>
				</port>
			</input>
			<output>
				<port id="1" precision="FP32">
					<dim>1</dim>
					<dim>32</dim>
					<dim>1</dim>
					<dim>1</dim>
				</port>
			</output>
		</layer>
		<layer id="9" name="1039" type="Add" version="opset1">
			<data auto_broadcast="numpy"/>
			<rt_info>
				<attribute name="fused_names" value="1039, Concat_230, Reshape_231" version="0"/>
			</rt_info>
			<input>
				<port id="0" precision="FP32">
					<dim>1</dim>
					<dim>32</dim>
					<dim>64</dim>
					<dim>256</dim>
				</port>
				<port id="1" precision="FP32">
					<dim>1</dim>
					<dim>32</dim>
					<dim>1</dim>
					<dim>1</dim>
				</port>
			</input>
			<output>
				<port id="2" names="1039" precision="FP32">
					<dim>1</dim>
					<dim>32</dim>
					<dim>64</dim>
					<dim>256</dim>
				</port>
			</output>
		</layer>
		<layer id="10" name="434" type="ReLU" version="opset1">
			<rt_info>
				<attribute name="fused_names" value="434, 435" version="0"/>
			</rt_info>
			<input>
				<port id="0" precision="FP32">
					<dim>1</dim>
					<dim>32</dim>
					<dim>64</dim>
					<dim>256</dim>
				</port>
			</input>
			<output>
				<port id="1" names="434,435" precision="FP32">
					<dim>1</dim>
					<dim>32</dim>
					<dim>64</dim>
					<dim>256</dim>
				</port>
			</output>
		</layer>
		<layer id="11" name="1043_compressed" type="Const" version="opset1">
			<data element_type="f16" offset="28624" shape="32, 32, 1, 1" size="2048"/>
			<output>
				<port id="0" precision="FP16">
					<dim>32</dim>
					<dim>32</dim>
					<dim>1</dim>
					<dim>1</dim>
				</port>
			</output>
		</layer>
		<layer id="12" name="1043" type="Convert" version="opset1">
			<data destination_type="f32"/>
			<rt_info>
				<attribute name="decompression" version="0"/>
				<attribute name="fused_names" value="1043" version="0"/>
			</rt_info>
			<input>
				<port id="0" precision="FP16">
					<dim>32</dim>
					<dim>32</dim>
					<dim>1</dim>
					<dim>1</dim>
				</port>
			</input>
			<output>
				<port id="1" names="1043" precision="FP32">
					<dim>32</dim>
					<dim>32</dim>
					<dim>1</dim>
					<dim>1</dim>
				</port>
			</output>
		</layer>
		<layer id="13" name="Convolution_261" type="Convolution" version="opset1">
			<data auto_pad="explicit" dilations="1, 1" pads_begin="0, 0" pads_end="0, 0" strides="1, 1"/>
			<rt_info>
				<attribute name="fused_names" value="Convolution_261" version="0"/>
			</rt_info>
			<input>
				<port id="0" precision="FP32">
					<dim>1</dim>
					<dim>32</dim>
					<dim>64</dim>
					<dim>256</dim>
				</port>
				<port id="1" precision="FP32">
					<dim>32</dim>
					<dim>32</dim>
					<dim>1</dim>
					<dim>1</dim>
				</port>
			</input>
			<output>
				<port id="2" precision="FP32">
					<dim>1</dim>
					<dim>32</dim>
					<dim>64</dim>
					<dim>256</dim>
				</port>
			</output>
		</layer>
		<layer id="14" name="Reshape_281_compressed" type="Const" version="opset1">
			<data element_type="f16" offset="30672" shape="1, 32, 1, 1" size="64"/>
			<output>
				<port id="0" precision="FP16">
					<dim>1</dim>
					<dim>32</dim>
					<dim>1</dim>
					<dim>1</dim>
				</port>
			</output>
		</layer>
		<layer id="15" name="Reshape_281" type="Convert" version="opset1">
			<data destination_type="f32"/>
			<rt_info>
				<attribute name="decompression" version="0"/>
			</rt_info>
			<input>
				<port id="0" precision="FP16">
					<dim>1</dim>
					<dim>32</dim>
					<dim>1</dim>
					<dim>1</dim>
				</port>
			</input>
			<output>
				<port id="1" precision="FP32">
					<dim>1</dim>
					<dim>32</dim>
					<dim>1</dim>
					<dim>1</dim>
				</port>
			</output>
		</layer>
		<layer id="16" name="1042" type="Add" version="opset1">
			<data auto_broadcast="numpy"/>
			<rt_info>
				<attribute name="fused_names" value="1042, Concat_280, Reshape_281" version="0"/>
			</rt_info>
			<input>
				<port id="0" precision="FP32">
					<dim>1</dim>
					<dim>32</dim>
					<dim>64</dim>
					<dim>256</dim>
				</port>
				<port id="1" precision="FP32">
					<dim>1</dim>
					<dim>32</dim>
					<dim>1</dim>
					<dim>1</dim>
				</port>
			</input>
			<output>
				<port id="2" names="1042" precision="FP32">
					<dim>1</dim>
					<dim>32</dim>
					<dim>64</dim>
					<dim>256</dim>
				</port>
			</output>
		</layer>
		<layer id="17" name="438" type="ReLU" version="opset1">
			<rt_info>
				<attribute name="fused_names" value="438" version="0"/>
			</rt_info>
			<input>
				<port id="0" precision="FP32">
					<dim>1</dim>
					<dim>32</dim>
					<dim>64</dim>
					<dim>256</dim>
				</port>
			</input>
			<output>
				<port id="1" names="438" precision="FP32">
					<dim>1</dim>
					<dim>32</dim>
					<dim>64</dim>
					<dim>256</dim>
				</port>
			</output>
		</layer>
		<layer id="18" name="1046_compressed" type="Const" version="opset1">
			<data element_type="f16" offset="30736" shape="32, 32, 3, 3" size="18432"/>
			<output>
				<port id="0" precision="FP16">
					<dim>32</dim>
					<dim>32</dim>
					<dim>3</dim>
					<dim>3</dim>
				</port>
			</output>
		</layer>
		<layer id="19" name="1046" type="Convert" version="opset1">
			<data destination_type="f32"/>
			<rt_info>
				<attribute name="decompression" version="0"/>
				<attribute name="fused_names" value="1046" version="0"/>
			</rt_info>
			<input>
				<port id="0" precision="FP16">
					<dim>32</dim>
					<dim>32</dim>
					<dim>3</dim>
					<dim>3</dim>
				</port>
			</input>
			<output>
				<port id="1" names="1046" precision="FP32">
					<dim>32</dim>
					<dim>32</dim>
					<dim>3</dim>
					<dim>3</dim>
				</port>
			</output>
		</layer>
		<layer id="20" name="Convolution_310" type="Convolution" version="opset1">
			<data auto_pad="explicit" dilations="1, 1" pads_begin="1, 1" pads_end="1, 1" strides="2, 2"/>
			<rt_info>
				<attribute name="fused_names" value="Convolution_310" version="0"/>
			</rt_info>
			<input>
				<port id="0" precision="FP32">
					<dim>1</dim>
					<dim>32</dim>
					<dim>64</dim>
					<dim>256</dim>
				</port>
				<port id="1" precision="FP32">
					<dim>32</dim>
					<dim>32</dim>
					<dim>3</dim>
					<dim>3</dim>
				</port>
			</input>
			<output>
				<port id="2" precision="FP32">
					<dim>1</dim>
					<dim>32</dim>
					<dim>32</dim>
					<dim>128</dim>
				</port>
			</output>
		</layer>
		<layer id="21" name="Reshape_330_compressed" type="Const" version="opset1">
			<data element_type="f16" offset="49168" shape="1, 32, 1, 1" size="64"/>
			<output>
				<port id="0" precision="FP16">
					<dim>1</dim>
					<dim>32</dim>
					<dim>1</dim>
					<dim>1</dim>
				</port>
			</output>
		</layer>
		<layer id="22" name="Reshape_330" type="Convert" version="opset1">
			<data destination_type="f32"/>
			<rt_info>
				<attribute name="decompression" version="0"/>
			</rt_info>
			<input>
				<port id="0" precision="FP16">
					<dim>1</dim>
					<dim>32</dim>
					<dim>1</dim>
					<dim>1</dim>
				</port>
			</input>
			<output>
				<port id="1" precision="FP32">
					<dim>1</dim>
					<dim>32</dim>
					<dim>1</dim>
					<dim>1</dim>
				</port>
			</output>
		</layer>
		<layer id="23" name="1045" type="Add" version="opset1">
			<data auto_broadcast="numpy"/>
			<rt_info>
				<attribute name="fused_names" value="1045, Concat_329, Reshape_330" version="0"/>
			</rt_info>
			<input>
				<port id="0" precision="FP32">
					<dim>1</dim>
					<dim>32</dim>
					<dim>32</dim>
					<dim>128</dim>
				</port>
				<port id="1" precision="FP32">
					<dim>1</dim>
					<dim>32</dim>
					<dim>1</dim>
					<dim>1</dim>
				</port>
			</input>
			<output>
				<port id="2" names="1045" precision="FP32">
					<dim>1</dim>
					<dim>32</dim>
					<dim>32</dim>
					<dim>128</dim>
				</port>
			</output>
		</layer>
		<layer id="24" name="1049_compressed" type="Const" version="opset1">
			<data element_type="f16" offset="49232" shape="32, 32, 1, 1" size="2048"/>
			<output>
				<port id="0" precision="FP16">
					<dim>32</dim>
					<dim>32</dim>
					<dim>1</dim>
					<dim>1</dim>
				</port>
			</output>
		</layer>
		<layer id="25" name="1049" type="Convert" version="opset1">
			<data destination_type="f32"/>
			<rt_info>
				<attribute name="decompression" version="0"/>
				<attribute name="fused_names" value="1049" version="0"/>
			</rt_info>
			<input>
				<port id="0" precision="FP16">
					<dim>32</dim>
					<dim>32</dim>
					<dim>1</dim>
					<dim>1</dim>
				</port>
			</input>
			<output>
				<port id="1" names="1049" precision="FP32">
					<dim>32</dim>
					<dim>32</dim>
					<dim>1</dim>
					<dim>1</dim>
				</port>
			</output>
		</layer>
		<layer id="26" name="Convolution_358" type="Convolution" version="opset1">
			<data auto_pad="explicit" dilations="1, 1" pads_begin="0, 0" pads_end="0, 0" strides="2, 2"/>
			<rt_info>
				<attribute name="fused_names" value="Convolution_358" version="0"/>
			</rt_info>
			<input>
				<port id="0" precision="FP32">
					<dim>1</dim>
					<dim>32</dim>
					<dim>64</dim>
					<dim>256</dim>
				</port>
				<port id="1" precision="FP32">
					<dim>32</dim>
					<dim>32</dim>
					<dim>1</dim>
					<dim>1</dim>
				</port>
			</input>
			<output>
				<port id="2" precision="FP32">
					<dim>1</dim>
					<dim>32</dim>
					<dim>32</dim>
					<dim>128</dim>
				</port>
			</output>
		</layer>
		<layer id="27" name="Reshape_378_compressed" type="Const" version="opset1">
			<data element_type="f16" offset="51280" shape="1, 32, 1, 1" size="64"/>
			<output>
				<port id="0" precision="FP16">
					<dim>1</dim>
					<dim>32</dim>
					<dim>1</dim>
					<dim>1</dim>
				</port>
			</output>
		</layer>
		<layer id="28" name="Reshape_378" type="Convert" version="opset1">
			<data destination_type="f32"/>
			<rt_info>
				<attribute name="decompression" version="0"/>
			</rt_info>
			<input>
				<port id="0" precision="FP16">
					<dim>1</dim>
					<dim>32</dim>
					<dim>1</dim>
					<dim>1</dim>
				</port>
			</input>
			<output>
				<port id="1" precision="FP32">
					<dim>1</dim>
					<dim>32</dim>
					<dim>1</dim>
					<dim>1</dim>
				</port>
			</output>
		</layer>
		<layer id="29" name="1048" type="Add" version="opset1">
			<data auto_broadcast="numpy"/>
			<rt_info>
				<attribute name="fused_names" value="1048, Concat_377, Reshape_378" version="0"/>
			</rt_info>
			<input>
				<port id="0" precision="FP32">
					<dim>1</dim>
					<dim>32</dim>
					<dim>32</dim>
					<dim>128</dim>
				</port>
				<port id="1" precision="FP32">
					<dim>1</dim>
					<dim>32</dim>
					<dim>1</dim>
					<dim>1</dim>
				</port>
			</input>
			<output>
				<port id="2" names="1048" precision="FP32">
					<dim>1</dim>
					<dim>32</dim>
					<dim>32</dim>
					<dim>128</dim>
				</port>
			</output>
		</layer>
		<layer id="30" name="443" type="Add" version="opset1">
			<data auto_broadcast="numpy"/>
			<rt_info>
				<attribute name="fused_names" value="443" version="0"/>
			</rt_info>
			<input>
				<port id="0" precision="FP32">
					<dim>1</dim>
					<dim>32</dim>
					<dim>32</dim>
					<dim>128</dim>
				</port>
				<port id="1" precision="FP32">
					<dim>1</dim>
					<dim>32</dim>
					<dim>32</dim>
					<dim>128</dim>
				</port>
			</input>
			<output>
				<port id="2" names="443" precision="FP32">
					<dim>1</dim>
					<dim>32</dim>
					<dim>32</dim>
					<dim>128</dim>
				</port>
			</output>
		</layer>
		<layer id="31" name="444" type="ReLU" version="opset1">
			<rt_info>
				<attribute name="fused_names" value="444" version="0"/>
			</rt_info>
			<input>
				<port id="0" precision="FP32">
					<dim>1</dim>
					<dim>32</dim>
					<dim>32</dim>
					<dim>128</dim>
				</port>
			</input>
			<output>
				<port id="1" names="444" precision="FP32">
					<dim>1</dim>
					<dim>32</dim>
					<dim>32</dim>
					<dim>128</dim>
				</port>
			</output>
		</layer>
		<layer id="32" name="1052_compressed" type="Const" version="opset1">
			<data element_type="f16" offset="51344" shape="32, 32, 1, 1" size="2048"/>
			<output>
				<port id="0" precision="FP16">
					<dim>32</dim>
					<dim>32</dim>
					<dim>1</dim>
					<dim>1</dim>
				</port>
			</output>
		</layer>
		<layer id="33" name="1052" type="Convert" version="opset1">
			<data destination_type="f32"/>
			<rt_info>
				<attribute name="decompression" version="0"/>
				<attribute name="fused_names" value="1052" version="0"/>
			</rt_info>
			<input>
				<port id="0" precision="FP16">
					<dim>32</dim>
					<dim>32</dim>
					<dim>1</dim>
					<dim>1</dim>
				</port>
			</input>
			<output>
				<port id="1" names="1052" precision="FP32">
					<dim>32</dim>
					<dim>32</dim>
					<dim>1</dim>
					<dim>1</dim>
				</port>
			</output>
		</layer>
		<layer id="34" name="Convolution_408" type="Convolution" version="opset1">
			<data auto_pad="explicit" dilations="1, 1" pads_begin="0, 0" pads_end="0, 0" strides="1, 1"/>
			<rt_info>
				<attribute name="fused_names" value="Convolution_408" version="0"/>
			</rt_info>
			<input>
				<port id="0" precision="FP32">
					<dim>1</dim>
					<dim>32</dim>
					<dim>32</dim>
					<dim>128</dim>
				</port>
				<port id="1" precision="FP32">
					<dim>32</dim>
					<dim>32</dim>
					<dim>1</dim>
					<dim>1</dim>
				</port>
			</input>
			<output>
				<port id="2" precision="FP32">
					<dim>1</dim>
					<dim>32</dim>
					<dim>32</dim>
					<dim>128</dim>
				</port>
			</output>
		</layer>
		<layer id="35" name="Reshape_428_compressed" type="Const" version="opset1">
			<data element_type="f16" offset="53392" shape="1, 32, 1, 1" size="64"/>
			<output>
				<port id="0" precision="FP16">
					<dim>1</dim>
					<dim>32</dim>
					<dim>1</dim>
					<dim>1</dim>
				</port>
			</output>
		</layer>
		<layer id="36" name="Reshape_428" type="Convert" version="opset1">
			<data destination_type="f32"/>
			<rt_info>
				<attribute name="decompression" version="0"/>
			</rt_info>
			<input>
				<port id="0" precision="FP16">
					<dim>1</dim>
					<dim>32</dim>
					<dim>1</dim>
					<dim>1</dim>
				</port>
			</input>
			<output>
				<port id="1" precision="FP32">
					<dim>1</dim>
					<dim>32</dim>
					<dim>1</dim>
					<dim>1</dim>
				</port>
			</output>
		</layer>
		<layer id="37" name="1051" type="Add" version="opset1">
			<data auto_broadcast="numpy"/>
			<rt_info>
				<attribute name="fused_names" value="1051, Concat_427, Reshape_428" version="0"/>
			</rt_info>
			<input>
				<port id="0" precision="FP32">
					<dim>1</dim>
					<dim>32</dim>
					<dim>32</dim>
					<dim>128</dim>
				</port>
				<port id="1" precision="FP32">
					<dim>1</dim>
					<dim>32</dim>
					<dim>1</dim>
					<dim>1</dim>
				</port>
			</input>
			<output>
				<port id="2" names="1051" precision="FP32">
					<dim>1</dim>
					<dim>32</dim>
					<dim>32</dim>
					<dim>128</dim>
				</port>
			</output>
		</layer>
		<layer id="38" name="447" type="ReLU" version="opset1">
			<rt_info>
				<attribute name="fused_names" value="447" version="0"/>
			</rt_info>
			<input>
				<port id="0" precision="FP32">
					<dim>1</dim>
					<dim>32</dim>
					<dim>32</dim>
					<dim>128</dim>
				</port>
			</input>
			<output>
				<port id="1" names="447" precision="FP32">
					<dim>1</dim>
					<dim>32</dim>
					<dim>32</dim>
					<dim>128</dim>
				</port>
			</output>
		</layer>
		<layer id="39" name="1055_compressed" type="Const" version="opset1">
			<data element_type="f16" offset="53456" shape="32, 32, 3, 3" size="18432"/>
			<output>
				<port id="0" precision="FP16">
					<dim>32</dim>
					<dim>32</dim>
					<dim>3</dim>
					<dim>3</dim>
				</port>
			</output>
		</layer>
		<layer id="40" name="1055" type="Convert" version="opset1">
			<data destination_type="f32"/>
			<rt_info>
				<attribute name="decompression" version="0"/>
				<attribute name="fused_names" value="1055" version="0"/>
			</rt_info>
			<input>
				<port id="0" precision="FP16">
					<dim>32</dim>
					<dim>32</dim>
					<dim>3</dim>
					<dim>3</dim>
				</port>
			</input>
			<output>
				<port id="1" names="1055" precision="FP32">
					<dim>32</dim>
					<dim>32</dim>
					<dim>3</dim>
					<dim>3</dim>
				</port>
			</output>
		</layer>
		<layer id="41" name="Convolution_457" type="Convolution" version="opset1">
			<data auto_pad="explicit" dilations="1, 1" pads_begin="1, 1" pads_end="1, 1" strides="1, 1"/>
			<rt_info>
				<attribute name="fused_names" value="Convolution_457" version="0"/>
			</rt_info>
			<input>
				<port id="0" precision="FP32">
					<dim>1</dim>
					<dim>32</dim>
					<dim>32</dim>
					<dim>128</dim>
				</port>
				<port id="1" precision="FP32">
					<dim>32</dim>
					<dim>32</dim>
					<dim>3</dim>
					<dim>3</dim>
				</port>
			</input>
			<output>
				<port id="2" precision="FP32">
					<dim>1</dim>
					<dim>32</dim>
					<dim>32</dim>
					<dim>128</dim>
				</port>
			</output>
		</layer>
		<layer id="42" name="Reshape_477_compressed" type="Const" version="opset1">
			<data element_type="f16" offset="71888" shape="1, 32, 1, 1" size="64"/>
			<output>
				<port id="0" precision="FP16">
					<dim>1</dim>
					<dim>32</dim>
					<dim>1</dim>
					<dim>1</dim>
				</port>
			</output>
		</layer>
		<layer id="43" name="Reshape_477" type="Convert" version="opset1">
			<data destination_type="f32"/>
			<rt_info>
				<attribute name="decompression" version="0"/>
			</rt_info>
			<input>
				<port id="0" precision="FP16">
					<dim>1</dim>
					<dim>32</dim>
					<dim>1</dim>
					<dim>1</dim>
				</port>
			</input>
			<output>
				<port id="1" precision="FP32">
					<dim>1</dim>
					<dim>32</dim>
					<dim>1</dim>
					<dim>1</dim>
				</port>
			</output>
		</layer>
		<layer id="44" name="1054" type="Add" version="opset1">
			<data auto_broadcast="numpy"/>
			<rt_info>
				<attribute name="fused_names" value="1054, Concat_476, Reshape_477" version="0"/>
			</rt_info>
			<input>
				<port id="0" precision="FP32">
					<dim>1</dim>
					<dim>32</dim>
					<dim>32</dim>
					<dim>128</dim>
				</port>
				<port id="1" precision="FP32">
					<dim>1</dim>
					<dim>32</dim>
					<dim>1</dim>
					<dim>1</dim>
				</port>
			</input>
			<output>
				<port id="2" names="1054" precision="FP32">
					<dim>1</dim>
					<dim>32</dim>
					<dim>32</dim>
					<dim>128</dim>
				</port>
			</output>
		</layer>
		<layer id="45" name="450" type="Add" version="opset1">
			<data auto_broadcast="numpy"/>
			<rt_info>
				<attribute name="fused_names" value="450" version="0"/>
			</rt_info>
			<input>
				<port id="0" precision="FP32">
					<dim>1</dim>
					<dim>32</dim>
					<dim>32</dim>
					<dim>128</dim>
				</port>
				<port id="1" precision="FP32">
					<dim>1</dim>
					<dim>32</dim>
					<dim>32</dim>
					<dim>128</dim>
				</port>
			</input>
			<output>
				<port id="2" names="450" precision="FP32">
					<dim>1</dim>
					<dim>32</dim>
					<dim>32</dim>
					<dim>128</dim>
				</port>
			</output>
		</layer>
		<layer id="46" name="451" type="ReLU" version="opset1">
			<rt_info>
				<attribute name="fused_names" value="451" version="0"/>
			</rt_info>
			<input>
				<port id="0" precision="FP32">
					<dim>1</dim>
					<dim>32</dim>
					<dim>32</dim>
					<dim>128</dim>
				</port>
			</input>
			<output>
				<port id="1" names="451" precision="FP32">
					<dim>1</dim>
					<dim>32</dim>
					<dim>32</dim>
					<dim>128</dim>
				</port>
			</output>
		</layer>
		<layer id="47" name="1058_compressed" type="Const" version="opset1">
			<data element_type="f16" offset="71952" shape="32, 32, 1, 1" size="2048"/>
			<output>
				<port id="0" precision="FP16">
					<dim>32</dim>
					<dim>32</dim>
					<dim>1</dim>
					<dim>1</dim>
				</port>
			</output>
		</layer>
		<layer id="48" name="1058" type="Convert" version="opset1">
			<data destination_type="f32"/>
			<rt_info>
				<attribute name="decompression" version="0"/>
				<attribute name="fused_names" value="1058" version="0"/>
			</rt_info>
			<input>
				<port id="0" precision="FP16">
					<dim>32</dim>
					<dim>32</dim>
					<dim>1</dim>
					<dim>1</dim>
				</port>
			</input>
			<output>
				<port id="1" names="1058" precision="FP32">
					<dim>32</dim>
					<dim>32</dim>
					<dim>1</dim>
					<dim>1</dim>
				</port>
			</output>
		</layer>
		<layer id="49" name="Convolution_507" type="Convolution" version="opset1">
			<data auto_pad="explicit" dilations="1, 1" pads_begin="0, 0" pads_end="0, 0" strides="1, 1"/>
			<rt_info>
				<attribute name="fused_names" value="Convolution_507" version="0"/>
			</rt_info>
			<input>
				<port id="0" precision="FP32">
					<dim>1</dim>
					<dim>32</dim>
					<dim>32</dim>
					<dim>128</dim>
				</port>
				<port id="1" precision="FP32">
					<dim>32</dim>
					<dim>32</dim>
					<dim>1</dim>
					<dim>1</dim>
				</port>
			</input>
			<output>
				<port id="2" precision="FP32">
					<dim>1</dim>
					<dim>32</dim>
					<dim>32</dim>
					<dim>128</dim>
				</port>
			</output>
		</layer>
		<layer id="50" name="Reshape_527_compressed" type="Const" version="opset1">
			<data element_type="f16" offset="74000" shape="1, 32, 1, 1" size="64"/>
			<output>
				<port id="0" precision="FP16">
					<dim>1</dim>
					<dim>32</dim>
					<dim>1</dim>
					<dim>1</dim>
				</port>
			</output>
		</layer>
		<layer id="51" name="Reshape_527" type="Convert" version="opset1">
			<data destination_type="f32"/>
			<rt_info>
				<attribute name="decompression" version="0"/>
			</rt_info>
			<input>
				<port id="0" precision="FP16">
					<dim>1</dim>
					<dim>32</dim>
					<dim>1</dim>
					<dim>1</dim>
				</port>
			</input>
			<output>
				<port id="1" precision="FP32">
					<dim>1</dim>
					<dim>32</dim>
					<dim>1</dim>
					<dim>1</dim>
				</port>
			</output>
		</layer>
		<layer id="52" name="1057" type="Add" version="opset1">
			<data auto_broadcast="numpy"/>
			<rt_info>
				<attribute name="fused_names" value="1057, Concat_526, Reshape_527" version="0"/>
			</rt_info>
			<input>
				<port id="0" precision="FP32">
					<dim>1</dim>
					<dim>32</dim>
					<dim>32</dim>
					<dim>128</dim>
				</port>
				<port id="1" precision="FP32">
					<dim>1</dim>
					<dim>32</dim>
					<dim>1</dim>
					<dim>1</dim>
				</port>
			</input>
			<output>
				<port id="2" names="1057" precision="FP32">
					<dim>1</dim>
					<dim>32</dim>
					<dim>32</dim>
					<dim>128</dim>
				</port>
			</output>
		</layer>
		<layer id="53" name="454" type="ReLU" version="opset1">
			<rt_info>
				<attribute name="fused_names" value="454" version="0"/>
			</rt_info>
			<input>
				<port id="0" precision="FP32">
					<dim>1</dim>
					<dim>32</dim>
					<dim>32</dim>
					<dim>128</dim>
				</port>
			</input>
			<output>
				<port id="1" names="454" precision="FP32">
					<dim>1</dim>
					<dim>32</dim>
					<dim>32</dim>
					<dim>128</dim>
				</port>
			</output>
		</layer>
		<layer id="54" name="1061_compressed" type="Const" version="opset1">
			<data element_type="f16" offset="74064" shape="32, 32, 3, 3" size="18432"/>
			<output>
				<port id="0" precision="FP16">
					<dim>32</dim>
					<dim>32</dim>
					<dim>3</dim>
					<dim>3</dim>
				</port>
			</output>
		</layer>
		<layer id="55" name="1061" type="Convert" version="opset1">
			<data destination_type="f32"/>
			<rt_info>
				<attribute name="decompression" version="0"/>
				<attribute name="fused_names" value="1061" version="0"/>
			</rt_info>
			<input>
				<port id="0" precision="FP16">
					<dim>32</dim>
					<dim>32</dim>
					<dim>3</dim>
					<dim>3</dim>
				</port>
			</input>
			<output>
				<port id="1" names="1061" precision="FP32">
					<dim>32</dim>
					<dim>32</dim>
					<dim>3</dim>
					<dim>3</dim>
				</port>
			</output>
		</layer>
		<layer id="56" name="Convolution_556" type="Convolution" version="opset1">
			<data auto_pad="explicit" dilations="1, 1" pads_begin="1, 1" pads_end="1, 1" strides="1, 1"/>
			<rt_info>
				<attribute name="fused_names" value="Convolution_556" version="0"/>
			</rt_info>
			<input>
				<port id="0" precision="FP32">
					<dim>1</dim>
					<dim>32</dim>
					<dim>32</dim>
					<dim>128</dim>
				</port>
				<port id="1" precision="FP32">
					<dim>32</dim>
					<dim>32</dim>
					<dim>3</dim>
					<dim>3</dim>
				</port>
			</input>
			<output>
				<port id="2" precision="FP32">
					<dim>1</dim>
					<dim>32</dim>
					<dim>32</dim>
					<dim>128</dim>
				</port>
			</output>
		</layer>
		<layer id="57" name="Reshape_576_compressed" type="Const" version="opset1">
			<data element_type="f16" offset="92496" shape="1, 32, 1, 1" size="64"/>
			<output>
				<port id="0" precision="FP16">
					<dim>1</dim>
					<dim>32</dim>
					<dim>1</dim>
					<dim>1</dim>
				</port>
			</output>
		</layer>
		<layer id="58" name="Reshape_576" type="Convert" version="opset1">
			<data destination_type="f32"/>
			<rt_info>
				<attribute name="decompression" version="0"/>
			</rt_info>
			<input>
				<port id="0" precision="FP16">
					<dim>1</dim>
					<dim>32</dim>
					<dim>1</dim>
					<dim>1</dim>
				</port>
			</input>
			<output>
				<port id="1" precision="FP32">
					<dim>1</dim>
					<dim>32</dim>
					<dim>1</dim>
					<dim>1</dim>
				</port>
			</output>
		</layer>
		<layer id="59" name="1060" type="Add" version="opset1">
			<data auto_broadcast="numpy"/>
			<rt_info>
				<attribute name="fused_names" value="1060, Concat_575, Reshape_576" version="0"/>
			</rt_info>
			<input>
				<port id="0" precision="FP32">
					<dim>1</dim>
					<dim>32</dim>
					<dim>32</dim>
					<dim>128</dim>
				</port>
				<port id="1" precision="FP32">
					<dim>1</dim>
					<dim>32</dim>
					<dim>1</dim>
					<dim>1</dim>
				</port>
			</input>
			<output>
				<port id="2" names="1060" precision="FP32">
					<dim>1</dim>
					<dim>32</dim>
					<dim>32</dim>
					<dim>128</dim>
				</port>
			</output>
		</layer>
		<layer id="60" name="457" type="Add" version="opset1">
			<data auto_broadcast="numpy"/>
			<rt_info>
				<attribute name="fused_names" value="457" version="0"/>
			</rt_info>
			<input>
				<port id="0" precision="FP32">
					<dim>1</dim>
					<dim>32</dim>
					<dim>32</dim>
					<dim>128</dim>
				</port>
				<port id="1" precision="FP32">
					<dim>1</dim>
					<dim>32</dim>
					<dim>32</dim>
					<dim>128</dim>
				</port>
			</input>
			<output>
				<port id="2" names="457" precision="FP32">
					<dim>1</dim>
					<dim>32</dim>
					<dim>32</dim>
					<dim>128</dim>
				</port>
			</output>
		</layer>
		<layer id="61" name="458" type="ReLU" version="opset1">
			<rt_info>
				<attribute name="fused_names" value="458" version="0"/>
			</rt_info>
			<input>
				<port id="0" precision="FP32">
					<dim>1</dim>
					<dim>32</dim>
					<dim>32</dim>
					<dim>128</dim>
				</port>
			</input>
			<output>
				<port id="1" names="458" precision="FP32">
					<dim>1</dim>
					<dim>32</dim>
					<dim>32</dim>
					<dim>128</dim>
				</port>
			</output>
		</layer>
		<layer id="62" name="1064_compressed" type="Const" version="opset1">
			<data element_type="f16" offset="92560" shape="64, 32, 1, 1" size="4096"/>
			<output>
				<port id="0" precision="FP16">
					<dim>64</dim>
					<dim>32</dim>
					<dim>1</dim>
					<dim>1</dim>
				</port>
			</output>
		</layer>
		<layer id="63" name="1064" type="Convert" version="opset1">
			<data destination_type="f32"/>
			<rt_info>
				<attribute name="decompression" version="0"/>
				<attribute name="fused_names" value="1064" version="0"/>
			</rt_info>
			<input>
				<port id="0" precision="FP16">
					<dim>64</dim>
					<dim>32</dim>
					<dim>1</dim>
					<dim>1</dim>
				</port>
			</input>
			<output>
				<port id="1" names="1064" precision="FP32">
					<dim>64</dim>
					<dim>32</dim>
					<dim>1</dim>
					<dim>1</dim>
				</port>
			</output>
		</layer>
		<layer id="64" name="Convolution_606" type="Convolution" version="opset1">
			<data auto_pad="explicit" dilations="1, 1" pads_begin="0, 0" pads_end="0, 0" strides="1, 1"/>
			<rt_info>
				<attribute name="fused_names" value="Convolution_606" version="0"/>
			</rt_info>
			<input>
				<port id="0" precision="FP32">
					<dim>1</dim>
					<dim>32</dim>
					<dim>32</dim>
					<dim>128</dim>
				</port>
				<port id="1" precision="FP32">
					<dim>64</dim>
					<dim>32</dim>
					<dim>1</dim>
					<dim>1</dim>
				</port>
			</input>
			<output>
				<port id="2" precision="FP32">
					<dim>1</dim>
					<dim>64</dim>
					<dim>32</dim>
					<dim>128</dim>
				</port>
			</output>
		</layer>
		<layer id="65" name="Reshape_626_compressed" type="Const" version="opset1">
			<data element_type="f16" offset="96656" shape="1, 64, 1, 1" size="128"/>
			<output>
				<port id="0" precision="FP16">
					<dim>1</dim>
					<dim>64</dim>
					<dim>1</dim>
					<dim>1</dim>
				</port>
			</output>
		</layer>
		<layer id="66" name="Reshape_626" type="Convert" version="opset1">
			<data destination_type="f32"/>
			<rt_info>
				<attribute name="decompression" version="0"/>
			</rt_info>
			<input>
				<port id="0" precision="FP16">
					<dim>1</dim>
					<dim>64</dim>
					<dim>1</dim>
					<dim>1</dim>
				</port>
			</input>
			<output>
				<port id="1" precision="FP32">
					<dim>1</dim>
					<dim>64</dim>
					<dim>1</dim>
					<dim>1</dim>
				</port>
			</output>
		</layer>
		<layer id="67" name="1063" type="Add" version="opset1">
			<data auto_broadcast="numpy"/>
			<rt_info>
				<attribute name="fused_names" value="1063, Concat_625, Reshape_626" version="0"/>
			</rt_info>
			<input>
				<port id="0" precision="FP32">
					<dim>1</dim>
					<dim>64</dim>
					<dim>32</dim>
					<dim>128</dim>
				</port>
				<port id="1" precision="FP32">
					<dim>1</dim>
					<dim>64</dim>
					<dim>1</dim>
					<dim>1</dim>
				</port>
			</input>
			<output>
				<port id="2" names="1063" precision="FP32">
					<dim>1</dim>
					<dim>64</dim>
					<dim>32</dim>
					<dim>128</dim>
				</port>
			</output>
		</layer>
		<layer id="68" name="461" type="ReLU" version="opset1">
			<rt_info>
				<attribute name="fused_names" value="461" version="0"/>
			</rt_info>
			<input>
				<port id="0" precision="FP32">
					<dim>1</dim>
					<dim>64</dim>
					<dim>32</dim>
					<dim>128</dim>
				</port>
			</input>
			<output>
				<port id="1" names="461" precision="FP32">
					<dim>1</dim>
					<dim>64</dim>
					<dim>32</dim>
					<dim>128</dim>
				</port>
			</output>
		</layer>
		<layer id="69" name="1067_compressed" type="Const" version="opset1">
			<data element_type="f16" offset="96784" shape="64, 64, 3, 3" size="73728"/>
			<output>
				<port id="0" precision="FP16">
					<dim>64</dim>
					<dim>64</dim>
					<dim>3</dim>
					<dim>3</dim>
				</port>
			</output>
		</layer>
		<layer id="70" name="1067" type="Convert" version="opset1">
			<data destination_type="f32"/>
			<rt_info>
				<attribute name="decompression" version="0"/>
				<attribute name="fused_names" value="1067" version="0"/>
			</rt_info>
			<input>
				<port id="0" precision="FP16">
					<dim>64</dim>
					<dim>64</dim>
					<dim>3</dim>
					<dim>3</dim>
				</port>
			</input>
			<output>
				<port id="1" names="1067" precision="FP32">
					<dim>64</dim>
					<dim>64</dim>
					<dim>3</dim>
					<dim>3</dim>
				</port>
			</output>
		</layer>
		<layer id="71" name="Convolution_655" type="Convolution" version="opset1">
			<data auto_pad="explicit" dilations="1, 1" pads_begin="1, 1" pads_end="1, 1" strides="2, 2"/>
			<rt_info>
				<attribute name="fused_names" value="Convolution_655" version="0"/>
			</rt_info>
			<input>
				<port id="0" precision="FP32">
					<dim>1</dim>
					<dim>64</dim>
					<dim>32</dim>
					<dim>128</dim>
				</port>
				<port id="1" precision="FP32">
					<dim>64</dim>
					<dim>64</dim>
					<dim>3</dim>
					<dim>3</dim>
				</port>
			</input>
			<output>
				<port id="2" precision="FP32">
					<dim>1</dim>
					<dim>64</dim>
					<dim>16</dim>
					<dim>64</dim>
				</port>
			</output>
		</layer>
		<layer id="72" name="Reshape_675_compressed" type="Const" version="opset1">
			<data element_type="f16" offset="170512" shape="1, 64, 1, 1" size="128"/>
			<output>
				<port id="0" precision="FP16">
					<dim>1</dim>
					<dim>64</dim>
					<dim>1</dim>
					<dim>1</dim>
				</port>
			</output>
		</layer>
		<layer id="73" name="Reshape_675" type="Convert" version="opset1">
			<data destination_type="f32"/>
			<rt_info>
				<attribute name="decompression" version="0"/>
			</rt_info>
			<input>
				<port id="0" precision="FP16">
					<dim>1</dim>
					<dim>64</dim>
					<dim>1</dim>
					<dim>1</dim>
				</port>
			</input>
			<output>
				<port id="1" precision="FP32">
					<dim>1</dim>
					<dim>64</dim>
					<dim>1</dim>
					<dim>1</dim>
				</port>
			</output>
		</layer>
		<layer id="74" name="1066" type="Add" version="opset1">
			<data auto_broadcast="numpy"/>
			<rt_info>
				<attribute name="fused_names" value="1066, Concat_674, Reshape_675" version="0"/>
			</rt_info>
			<input>
				<port id="0" precision="FP32">
					<dim>1</dim>
					<dim>64</dim>
					<dim>16</dim>
					<dim>64</dim>
				</port>
				<port id="1" precision="FP32">
					<dim>1</dim>
					<dim>64</dim>
					<dim>1</dim>
					<dim>1</dim>
				</port>
			</input>
			<output>
				<port id="2" names="1066" precision="FP32">
					<dim>1</dim>
					<dim>64</dim>
					<dim>16</dim>
					<dim>64</dim>
				</port>
			</output>
		</layer>
		<layer id="75" name="1070_compressed" type="Const" version="opset1">
			<data element_type="f16" offset="170640" shape="64, 32, 1, 1" size="4096"/>
			<output>
				<port id="0" precision="FP16">
					<dim>64</dim>
					<dim>32</dim>
					<dim>1</dim>
					<dim>1</dim>
				</port>
			</output>
		</layer>
		<layer id="76" name="1070" type="Convert" version="opset1">
			<data destination_type="f32"/>
			<rt_info>
				<attribute name="decompression" version="0"/>
				<attribute name="fused_names" value="1070" version="0"/>
			</rt_info>
			<input>
				<port id="0" precision="FP16">
					<dim>64</dim>
					<dim>32</dim>
					<dim>1</dim>
					<dim>1</dim>
				</port>
			</input>
			<output>
				<port id="1" names="1070" precision="FP32">
					<dim>64</dim>
					<dim>32</dim>
					<dim>1</dim>
					<dim>1</dim>
				</port>
			</output>
		</layer>
		<layer id="77" name="Convolution_703" type="Convolution" version="opset1">
			<data auto_pad="explicit" dilations="1, 1" pads_begin="0, 0" pads_end="0, 0" strides="2, 2"/>
			<rt_info>
				<attribute name="fused_names" value="Convolution_703" version="0"/>
			</rt_info>
			<input>
				<port id="0" precision="FP32">
					<dim>1</dim>
					<dim>32</dim>
					<dim>32</dim>
					<dim>128</dim>
				</port>
				<port id="1" precision="FP32">
					<dim>64</dim>
					<dim>32</dim>
					<dim>1</dim>
					<dim>1</dim>
				</port>
			</input>
			<output>
				<port id="2" precision="FP32">
					<dim>1</dim>
					<dim>64</dim>
					<dim>16</dim>
					<dim>64</dim>
				</port>
			</output>
		</layer>
		<layer id="78" name="Reshape_723_compressed" type="Const" version="opset1">
			<data element_type="f16" offset="174736" shape="1, 64, 1, 1" size="128"/>
			<output>
				<port id="0" precision="FP16">
					<dim>1</dim>
					<dim>64</dim>
					<dim>1</dim>
					<dim>1</dim>
				</port>
			</output>
		</layer>
		<layer id="79" name="Reshape_723" type="Convert" version="opset1">
			<data destination_type="f32"/>
			<rt_info>
				<attribute name="decompression" version="0"/>
			</rt_info>
			<input>
				<port id="0" precision="FP16">
					<dim>1</dim>
					<dim>64</dim>
					<dim>1</dim>
					<dim>1</dim>
				</port>
			</input>
			<output>
				<port id="1" precision="FP32">
					<dim>1</dim>
					<dim>64</dim>
					<dim>1</dim>
					<dim>1</dim>
				</port>
			</output>
		</layer>
		<layer id="80" name="1069" type="Add" version="opset1">
			<data auto_broadcast="numpy"/>
			<rt_info>
				<attribute name="fused_names" value="1069, Concat_722, Reshape_723" version="0"/>
			</rt_info>
			<input>
				<port id="0" precision="FP32">
					<dim>1</dim>
					<dim>64</dim>
					<dim>16</dim>
					<dim>64</dim>
				</port>
				<port id="1" precision="FP32">
					<dim>1</dim>
					<dim>64</dim>
					<dim>1</dim>
					<dim>1</dim>
				</port>
			</input>
			<output>
				<port id="2" names="1069" precision="FP32">
					<dim>1</dim>
					<dim>64</dim>
					<dim>16</dim>
					<dim>64</dim>
				</port>
			</output>
		</layer>
		<layer id="81" name="466" type="Add" version="opset1">
			<data auto_broadcast="numpy"/>
			<rt_info>
				<attribute name="fused_names" value="466" version="0"/>
			</rt_info>
			<input>
				<port id="0" precision="FP32">
					<dim>1</dim>
					<dim>64</dim>
					<dim>16</dim>
					<dim>64</dim>
				</port>
				<port id="1" precision="FP32">
					<dim>1</dim>
					<dim>64</dim>
					<dim>16</dim>
					<dim>64</dim>
				</port>
			</input>
			<output>
				<port id="2" names="466" precision="FP32">
					<dim>1</dim>
					<dim>64</dim>
					<dim>16</dim>
					<dim>64</dim>
				</port>
			</output>
		</layer>
		<layer id="82" name="467" type="ReLU" version="opset1">
			<rt_info>
				<attribute name="fused_names" value="467" version="0"/>
			</rt_info>
			<input>
				<port id="0" precision="FP32">
					<dim>1</dim>
					<dim>64</dim>
					<dim>16</dim>
					<dim>64</dim>
				</port>
			</input>
			<output>
				<port id="1" names="467" precision="FP32">
					<dim>1</dim>
					<dim>64</dim>
					<dim>16</dim>
					<dim>64</dim>
				</port>
			</output>
		</layer>
		<layer id="83" name="1073_compressed" type="Const" version="opset1">
			<data element_type="f16" offset="174864" shape="64, 64, 1, 1" size="8192"/>
			<output>
				<port id="0" precision="FP16">
					<dim>64</dim>
					<dim>64</dim>
					<dim>1</dim>
					<dim>1</dim>
				</port>
			</output>
		</layer>
		<layer id="84" name="1073" type="Convert" version="opset1">
			<data destination_type="f32"/>
			<rt_info>
				<attribute name="decompression" version="0"/>
				<attribute name="fused_names" value="1073" version="0"/>
			</rt_info>
			<input>
				<port id="0" precision="FP16">
					<dim>64</dim>
					<dim>64</dim>
					<dim>1</dim>
					<dim>1</dim>
				</port>
			</input>
			<output>
				<port id="1" names="1073" precision="FP32">
					<dim>64</dim>
					<dim>64</dim>
					<dim>1</dim>
					<dim>1</dim>
				</port>
			</output>
		</layer>
		<layer id="85" name="Convolution_753" type="Convolution" version="opset1">
			<data auto_pad="explicit" dilations="1, 1" pads_begin="0, 0" pads_end="0, 0" strides="1, 1"/>
			<rt_info>
				<attribute name="fused_names" value="Convolution_753" version="0"/>
			</rt_info>
			<input>
				<port id="0" precision="FP32">
					<dim>1</dim>
					<dim>64</dim>
					<dim>16</dim>
					<dim>64</dim>
				</port>
				<port id="1" precision="FP32">
					<dim>64</dim>
					<dim>64</dim>
					<dim>1</dim>
					<dim>1</dim>
				</port>
			</input>
			<output>
				<port id="2" precision="FP32">
					<dim>1</dim>
					<dim>64</dim>
					<dim>16</dim>
					<dim>64</dim>
				</port>
			</output>
		</layer>
		<layer id="86" name="Reshape_773_compressed" type="Const" version="opset1">
			<data element_type="f16" offset="183056" shape="1, 64, 1, 1" size="128"/>
			<output>
				<port id="0" precision="FP16">
					<dim>1</dim>
					<dim>64</dim>
					<dim>1</dim>
					<dim>1</dim>
				</port>
			</output>
		</layer>
		<layer id="87" name="Reshape_773" type="Convert" version="opset1">
			<data destination_type="f32"/>
			<rt_info>
				<attribute name="decompression" version="0"/>
			</rt_info>
			<input>
				<port id="0" precision="FP16">
					<dim>1</dim>
					<dim>64</dim>
					<dim>1</dim>
					<dim>1</dim>
				</port>
			</input>
			<output>
				<port id="1" precision="FP32">
					<dim>1</dim>
					<dim>64</dim>
					<dim>1</dim>
					<dim>1</dim>
				</port>
			</output>
		</layer>
		<layer id="88" name="1072" type="Add" version="opset1">
			<data auto_broadcast="numpy"/>
			<rt_info>
				<attribute name="fused_names" value="1072, Concat_772, Reshape_773" version="0"/>
			</rt_info>
			<input>
				<port id="0" precision="FP32">
					<dim>1</dim>
					<dim>64</dim>
					<dim>16</dim>
					<dim>64</dim>
				</port>
				<port id="1" precision="FP32">
					<dim>1</dim>
					<dim>64</dim>
					<dim>1</dim>
					<dim>1</dim>
				</port>
			</input>
			<output>
				<port id="2" names="1072" precision="FP32">
					<dim>1</dim>
					<dim>64</dim>
					<dim>16</dim>
					<dim>64</dim>
				</port>
			</output>
		</layer>
		<layer id="89" name="470" type="ReLU" version="opset1">
			<rt_info>
				<attribute name="fused_names" value="470" version="0"/>
			</rt_info>
			<input>
				<port id="0" precision="FP32">
					<dim>1</dim>
					<dim>64</dim>
					<dim>16</dim>
					<dim>64</dim>
				</port>
			</input>
			<output>
				<port id="1" names="470" precision="FP32">
					<dim>1</dim>
					<dim>64</dim>
					<dim>16</dim>
					<dim>64</dim>
				</port>
			</output>
		</layer>
		<layer id="90" name="1076_compressed" type="Const" version="opset1">
			<data element_type="f16" offset="183184" shape="64, 64, 3, 3" size="73728"/>
			<output>
				<port id="0" precision="FP16">
					<dim>64</dim>
					<dim>64</dim>
					<dim>3</dim>
					<dim>3</dim>
				</port>
			</output>
		</layer>
		<layer id="91" name="1076" type="Convert" version="opset1">
			<data destination_type="f32"/>
			<rt_info>
				<attribute name="decompression" version="0"/>
				<attribute name="fused_names" value="1076" version="0"/>
			</rt_info>
			<input>
				<port id="0" precision="FP16">
					<dim>64</dim>
					<dim>64</dim>
					<dim>3</dim>
					<dim>3</dim>
				</port>
			</input>
			<output>
				<port id="1" names="1076" precision="FP32">
					<dim>64</dim>
					<dim>64</dim>
					<dim>3</dim>
					<dim>3</dim>
				</port>
			</output>
		</layer>
		<layer id="92" name="Convolution_802" type="Convolution" version="opset1">
			<data auto_pad="explicit" dilations="1, 1" pads_begin="1, 1" pads_end="1, 1" strides="1, 1"/>
			<rt_info>
				<attribute name="fused_names" value="Convolution_802" version="0"/>
			</rt_info>
			<input>
				<port id="0" precision="FP32">
					<dim>1</dim>
					<dim>64</dim>
					<dim>16</dim>
					<dim>64</dim>
				</port>
				<port id="1" precision="FP32">
					<dim>64</dim>
					<dim>64</dim>
					<dim>3</dim>
					<dim>3</dim>
				</port>
			</input>
			<output>
				<port id="2" precision="FP32">
					<dim>1</dim>
					<dim>64</dim>
					<dim>16</dim>
					<dim>64</dim>
				</port>
			</output>
		</layer>
		<layer id="93" name="Reshape_822_compressed" type="Const" version="opset1">
			<data element_type="f16" offset="256912" shape="1, 64, 1, 1" size="128"/>
			<output>
				<port id="0" precision="FP16">
					<dim>1</dim>
					<dim>64</dim>
					<dim>1</dim>
					<dim>1</dim>
				</port>
			</output>
		</layer>
		<layer id="94" name="Reshape_822" type="Convert" version="opset1">
			<data destination_type="f32"/>
			<rt_info>
				<attribute name="decompression" version="0"/>
			</rt_info>
			<input>
				<port id="0" precision="FP16">
					<dim>1</dim>
					<dim>64</dim>
					<dim>1</dim>
					<dim>1</dim>
				</port>
			</input>
			<output>
				<port id="1" precision="FP32">
					<dim>1</dim>
					<dim>64</dim>
					<dim>1</dim>
					<dim>1</dim>
				</port>
			</output>
		</layer>
		<layer id="95" name="1075" type="Add" version="opset1">
			<data auto_broadcast="numpy"/>
			<rt_info>
				<attribute name="fused_names" value="1075, Concat_821, Reshape_822" version="0"/>
			</rt_info>
			<input>
				<port id="0" precision="FP32">
					<dim>1</dim>
					<dim>64</dim>
					<dim>16</dim>
					<dim>64</dim>
				</port>
				<port id="1" precision="FP32">
					<dim>1</dim>
					<dim>64</dim>
					<dim>1</dim>
					<dim>1</dim>
				</port>
			</input>
			<output>
				<port id="2" names="1075" precision="FP32">
					<dim>1</dim>
					<dim>64</dim>
					<dim>16</dim>
					<dim>64</dim>
				</port>
			</output>
		</layer>
		<layer id="96" name="473" type="Add" version="opset1">
			<data auto_broadcast="numpy"/>
			<rt_info>
				<attribute name="fused_names" value="473" version="0"/>
			</rt_info>
			<input>
				<port id="0" precision="FP32">
					<dim>1</dim>
					<dim>64</dim>
					<dim>16</dim>
					<dim>64</dim>
				</port>
				<port id="1" precision="FP32">
					<dim>1</dim>
					<dim>64</dim>
					<dim>16</dim>
					<dim>64</dim>
				</port>
			</input>
			<output>
				<port id="2" names="473" precision="FP32">
					<dim>1</dim>
					<dim>64</dim>
					<dim>16</dim>
					<dim>64</dim>
				</port>
			</output>
		</layer>
		<layer id="97" name="474" type="ReLU" version="opset1">
			<rt_info>
				<attribute name="fused_names" value="474" version="0"/>
			</rt_info>
			<input>
				<port id="0" precision="FP32">
					<dim>1</dim>
					<dim>64</dim>
					<dim>16</dim>
					<dim>64</dim>
				</port>
			</input>
			<output>
				<port id="1" names="474" precision="FP32">
					<dim>1</dim>
					<dim>64</dim>
					<dim>16</dim>
					<dim>64</dim>
				</port>
			</output>
		</layer>
		<layer id="98" name="1079_compressed" type="Const" version="opset1">
			<data element_type="f16" offset="257040" shape="64, 64, 1, 1" size="8192"/>
			<output>
				<port id="0" precision="FP16">
					<dim>64</dim>
					<dim>64</dim>
					<dim>1</dim>
					<dim>1</dim>
				</port>
			</output>
		</layer>
		<layer id="99" name="1079" type="Convert" version="opset1">
			<data destination_type="f32"/>
			<rt_info>
				<attribute name="decompression" version="0"/>
				<attribute name="fused_names" value="1079" version="0"/>
			</rt_info>
			<input>
				<port id="0" precision="FP16">
					<dim>64</dim>
					<dim>64</dim>
					<dim>1</dim>
					<dim>1</dim>
				</port>
			</input>
			<output>
				<port id="1" names="1079" precision="FP32">
					<dim>64</dim>
					<dim>64</dim>
					<dim>1</dim>
					<dim>1</dim>
				</port>
			</output>
		</layer>
		<layer id="100" name="Convolution_852" type="Convolution" version="opset1">
			<data auto_pad="explicit" dilations="1, 1" pads_begin="0, 0" pads_end="0, 0" strides="1, 1"/>
			<rt_info>
				<attribute name="fused_names" value="Convolution_852" version="0"/>
			</rt_info>
			<input>
				<port id="0" precision="FP32">
					<dim>1</dim>
					<dim>64</dim>
					<dim>16</dim>
					<dim>64</dim>
				</port>
				<port id="1" precision="FP32">
					<dim>64</dim>
					<dim>64</dim>
					<dim>1</dim>
					<dim>1</dim>
				</port>
			</input>
			<output>
				<port id="2" precision="FP32">
					<dim>1</dim>
					<dim>64</dim>
					<dim>16</dim>
					<dim>64</dim>
				</port>
			</output>
		</layer>
		<layer id="101" name="Reshape_872_compressed" type="Const" version="opset1">
			<data element_type="f16" offset="265232" shape="1, 64, 1, 1" size="128"/>
			<output>
				<port id="0" precision="FP16">
					<dim>1</dim>
					<dim>64</dim>
					<dim>1</dim>
					<dim>1</dim>
				</port>
			</output>
		</layer>
		<layer id="102" name="Reshape_872" type="Convert" version="opset1">
			<data destination_type="f32"/>
			<rt_info>
				<attribute name="decompression" version="0"/>
			</rt_info>
			<input>
				<port id="0" precision="FP16">
					<dim>1</dim>
					<dim>64</dim>
					<dim>1</dim>
					<dim>1</dim>
				</port>
			</input>
			<output>
				<port id="1" precision="FP32">
					<dim>1</dim>
					<dim>64</dim>
					<dim>1</dim>
					<dim>1</dim>
				</port>
			</output>
		</layer>
		<layer id="103" name="1078" type="Add" version="opset1">
			<data auto_broadcast="numpy"/>
			<rt_info>
				<attribute name="fused_names" value="1078, Concat_871, Reshape_872" version="0"/>
			</rt_info>
			<input>
				<port id="0" precision="FP32">
					<dim>1</dim>
					<dim>64</dim>
					<dim>16</dim>
					<dim>64</dim>
				</port>
				<port id="1" precision="FP32">
					<dim>1</dim>
					<dim>64</dim>
					<dim>1</dim>
					<dim>1</dim>
				</port>
			</input>
			<output>
				<port id="2" names="1078" precision="FP32">
					<dim>1</dim>
					<dim>64</dim>
					<dim>16</dim>
					<dim>64</dim>
				</port>
			</output>
		</layer>
		<layer id="104" name="477" type="ReLU" version="opset1">
			<rt_info>
				<attribute name="fused_names" value="477" version="0"/>
			</rt_info>
			<input>
				<port id="0" precision="FP32">
					<dim>1</dim>
					<dim>64</dim>
					<dim>16</dim>
					<dim>64</dim>
				</port>
			</input>
			<output>
				<port id="1" names="477" precision="FP32">
					<dim>1</dim>
					<dim>64</dim>
					<dim>16</dim>
					<dim>64</dim>
				</port>
			</output>
		</layer>
		<layer id="105" name="1082_compressed" type="Const" version="opset1">
			<data element_type="f16" offset="265360" shape="64, 64, 3, 3" size="73728"/>
			<output>
				<port id="0" precision="FP16">
					<dim>64</dim>
					<dim>64</dim>
					<dim>3</dim>
					<dim>3</dim>
				</port>
			</output>
		</layer>
		<layer id="106" name="1082" type="Convert" version="opset1">
			<data destination_type="f32"/>
			<rt_info>
				<attribute name="decompression" version="0"/>
				<attribute name="fused_names" value="1082" version="0"/>
			</rt_info>
			<input>
				<port id="0" precision="FP16">
					<dim>64</dim>
					<dim>64</dim>
					<dim>3</dim>
					<dim>3</dim>
				</port>
			</input>
			<output>
				<port id="1" names="1082" precision="FP32">
					<dim>64</dim>
					<dim>64</dim>
					<dim>3</dim>
					<dim>3</dim>
				</port>
			</output>
		</layer>
		<layer id="107" name="Convolution_901" type="Convolution" version="opset1">
			<data auto_pad="explicit" dilations="1, 1" pads_begin="1, 1" pads_end="1, 1" strides="1, 1"/>
			<rt_info>
				<attribute name="fused_names" value="Convolution_901" version="0"/>
			</rt_info>
			<input>
				<port id="0" precision="FP32">
					<dim>1</dim>
					<dim>64</dim>
					<dim>16</dim>
					<dim>64</dim>
				</port>
				<port id="1" precision="FP32">
					<dim>64</dim>
					<dim>64</dim>
					<dim>3</dim>
					<dim>3</dim>
				</port>
			</input>
			<output>
				<port id="2" precision="FP32">
					<dim>1</dim>
					<dim>64</dim>
					<dim>16</dim>
					<dim>64</dim>
				</port>
			</output>
		</layer>
		<layer id="108" name="Reshape_921_compressed" type="Const" version="opset1">
			<data element_type="f16" offset="339088" shape="1, 64, 1, 1" size="128"/>
			<output>
				<port id="0" precision="FP16">
					<dim>1</dim>
					<dim>64</dim>
					<dim>1</dim>
					<dim>1</dim>
				</port>
			</output>
		</layer>
		<layer id="109" name="Reshape_921" type="Convert" version="opset1">
			<data destination_type="f32"/>
			<rt_info>
				<attribute name="decompression" version="0"/>
			</rt_info>
			<input>
				<port id="0" precision="FP16">
					<dim>1</dim>
					<dim>64</dim>
					<dim>1</dim>
					<dim>1</dim>
				</port>
			</input>
			<output>
				<port id="1" precision="FP32">
					<dim>1</dim>
					<dim>64</dim>
					<dim>1</dim>
					<dim>1</dim>
				</port>
			</output>
		</layer>
		<layer id="110" name="1081" type="Add" version="opset1">
			<data auto_broadcast="numpy"/>
			<rt_info>
				<attribute name="fused_names" value="1081, Concat_920, Reshape_921" version="0"/>
			</rt_info>
			<input>
				<port id="0" precision="FP32">
					<dim>1</dim>
					<dim>64</dim>
					<dim>16</dim>
					<dim>64</dim>
				</port>
				<port id="1" precision="FP32">
					<dim>1</dim>
					<dim>64</dim>
					<dim>1</dim>
					<dim>1</dim>
				</port>
			</input>
			<output>
				<port id="2" names="1081" precision="FP32">
					<dim>1</dim>
					<dim>64</dim>
					<dim>16</dim>
					<dim>64</dim>
				</port>
			</output>
		</layer>
		<layer id="111" name="480" type="Add" version="opset1">
			<data auto_broadcast="numpy"/>
			<rt_info>
				<attribute name="fused_names" value="480" version="0"/>
			</rt_info>
			<input>
				<port id="0" precision="FP32">
					<dim>1</dim>
					<dim>64</dim>
					<dim>16</dim>
					<dim>64</dim>
				</port>
				<port id="1" precision="FP32">
					<dim>1</dim>
					<dim>64</dim>
					<dim>16</dim>
					<dim>64</dim>
				</port>
			</input>
			<output>
				<port id="2" names="480" precision="FP32">
					<dim>1</dim>
					<dim>64</dim>
					<dim>16</dim>
					<dim>64</dim>
				</port>
			</output>
		</layer>
		<layer id="112" name="481" type="ReLU" version="opset1">
			<rt_info>
				<attribute name="fused_names" value="481" version="0"/>
			</rt_info>
			<input>
				<port id="0" precision="FP32">
					<dim>1</dim>
					<dim>64</dim>
					<dim>16</dim>
					<dim>64</dim>
				</port>
			</input>
			<output>
				<port id="1" names="481" precision="FP32">
					<dim>1</dim>
					<dim>64</dim>
					<dim>16</dim>
					<dim>64</dim>
				</port>
			</output>
		</layer>
		<layer id="113" name="1085_compressed" type="Const" version="opset1">
			<data element_type="f16" offset="339216" shape="64, 64, 1, 1" size="8192"/>
			<output>
				<port id="0" precision="FP16">
					<dim>64</dim>
					<dim>64</dim>
					<dim>1</dim>
					<dim>1</dim>
				</port>
			</output>
		</layer>
		<layer id="114" name="1085" type="Convert" version="opset1">
			<data destination_type="f32"/>
			<rt_info>
				<attribute name="decompression" version="0"/>
				<attribute name="fused_names" value="1085" version="0"/>
			</rt_info>
			<input>
				<port id="0" precision="FP16">
					<dim>64</dim>
					<dim>64</dim>
					<dim>1</dim>
					<dim>1</dim>
				</port>
			</input>
			<output>
				<port id="1" names="1085" precision="FP32">
					<dim>64</dim>
					<dim>64</dim>
					<dim>1</dim>
					<dim>1</dim>
				</port>
			</output>
		</layer>
		<layer id="115" name="Convolution_951" type="Convolution" version="opset1">
			<data auto_pad="explicit" dilations="1, 1" pads_begin="0, 0" pads_end="0, 0" strides="1, 1"/>
			<rt_info>
				<attribute name="fused_names" value="Convolution_951" version="0"/>
			</rt_info>
			<input>
				<port id="0" precision="FP32">
					<dim>1</dim>
					<dim>64</dim>
					<dim>16</dim>
					<dim>64</dim>
				</port>
				<port id="1" precision="FP32">
					<dim>64</dim>
					<dim>64</dim>
					<dim>1</dim>
					<dim>1</dim>
				</port>
			</input>
			<output>
				<port id="2" precision="FP32">
					<dim>1</dim>
					<dim>64</dim>
					<dim>16</dim>
					<dim>64</dim>
				</port>
			</output>
		</layer>
		<layer id="116" name="Reshape_971_compressed" type="Const" version="opset1">
			<data element_type="f16" offset="347408" shape="1, 64, 1, 1" size="128"/>
			<output>
				<port id="0" precision="FP16">
					<dim>1</dim>
					<dim>64</dim>
					<dim>1</dim>
					<dim>1</dim>
				</port>
			</output>
		</layer>
		<layer id="117" name="Reshape_971" type="Convert" version="opset1">
			<data destination_type="f32"/>
			<rt_info>
				<attribute name="decompression" version="0"/>
			</rt_info>
			<input>
				<port id="0" precision="FP16">
					<dim>1</dim>
					<dim>64</dim>
					<dim>1</dim>
					<dim>1</dim>
				</port>
			</input>
			<output>
				<port id="1" precision="FP32">
					<dim>1</dim>
					<dim>64</dim>
					<dim>1</dim>
					<dim>1</dim>
				</port>
			</output>
		</layer>
		<layer id="118" name="1084" type="Add" version="opset1">
			<data auto_broadcast="numpy"/>
			<rt_info>
				<attribute name="fused_names" value="1084, Concat_970, Reshape_971" version="0"/>
			</rt_info>
			<input>
				<port id="0" precision="FP32">
					<dim>1</dim>
					<dim>64</dim>
					<dim>16</dim>
					<dim>64</dim>
				</port>
				<port id="1" precision="FP32">
					<dim>1</dim>
					<dim>64</dim>
					<dim>1</dim>
					<dim>1</dim>
				</port>
			</input>
			<output>
				<port id="2" names="1084" precision="FP32">
					<dim>1</dim>
					<dim>64</dim>
					<dim>16</dim>
					<dim>64</dim>
				</port>
			</output>
		</layer>
		<layer id="119" name="484" type="ReLU" version="opset1">
			<rt_info>
				<attribute name="fused_names" value="484" version="0"/>
			</rt_info>
			<input>
				<port id="0" precision="FP32">
					<dim>1</dim>
					<dim>64</dim>
					<dim>16</dim>
					<dim>64</dim>
				</port>
			</input>
			<output>
				<port id="1" names="484" precision="FP32">
					<dim>1</dim>
					<dim>64</dim>
					<dim>16</dim>
					<dim>64</dim>
				</port>
			</output>
		</layer>
		<layer id="120" name="1088_compressed" type="Const" version="opset1">
			<data element_type="f16" offset="347536" shape="64, 64, 3, 3" size="73728"/>
			<output>
				<port id="0" precision="FP16">
					<dim>64</dim>
					<dim>64</dim>
					<dim>3</dim>
					<dim>3</dim>
				</port>
			</output>
		</layer>
		<layer id="121" name="1088" type="Convert" version="opset1">
			<data destination_type="f32"/>
			<rt_info>
				<attribute name="decompression" version="0"/>
				<attribute name="fused_names" value="1088" version="0"/>
			</rt_info>
			<input>
				<port id="0" precision="FP16">
					<dim>64</dim>
					<dim>64</dim>
					<dim>3</dim>
					<dim>3</dim>
				</port>
			</input>
			<output>
				<port id="1" names="1088" precision="FP32">
					<dim>64</dim>
					<dim>64</dim>
					<dim>3</dim>
					<dim>3</dim>
				</port>
			</output>
		</layer>
		<layer id="122" name="Convolution_1000" type="Convolution" version="opset1">
			<data auto_pad="explicit" dilations="1, 1" pads_begin="1, 1" pads_end="1, 1" strides="1, 1"/>
			<rt_info>
				<attribute name="fused_names" value="Convolution_1000" version="0"/>
			</rt_info>
			<input>
				<port id="0" precision="FP32">
					<dim>1</dim>
					<dim>64</dim>
					<dim>16</dim>
					<dim>64</dim>
				</port>
				<port id="1" precision="FP32">
					<dim>64</dim>
					<dim>64</dim>
					<dim>3</dim>
					<dim>3</dim>
				</port>
			</input>
			<output>
				<port id="2" precision="FP32">
					<dim>1</dim>
					<dim>64</dim>
					<dim>16</dim>
					<dim>64</dim>
				</port>
			</output>
		</layer>
		<layer id="123" name="Reshape_1020_compressed" type="Const" version="opset1">
			<data element_type="f16" offset="421264" shape="1, 64, 1, 1" size="128"/>
			<output>
				<port id="0" precision="FP16">
					<dim>1</dim>
					<dim>64</dim>
					<dim>1</dim>
					<dim>1</dim>
				</port>
			</output>
		</layer>
		<layer id="124" name="Reshape_1020" type="Convert" version="opset1">
			<data destination_type="f32"/>
			<rt_info>
				<attribute name="decompression" version="0"/>
			</rt_info>
			<input>
				<port id="0" precision="FP16">
					<dim>1</dim>
					<dim>64</dim>
					<dim>1</dim>
					<dim>1</dim>
				</port>
			</input>
			<output>
				<port id="1" precision="FP32">
					<dim>1</dim>
					<dim>64</dim>
					<dim>1</dim>
					<dim>1</dim>
				</port>
			</output>
		</layer>
		<layer id="125" name="1087" type="Add" version="opset1">
			<data auto_broadcast="numpy"/>
			<rt_info>
				<attribute name="fused_names" value="1087, Concat_1019, Reshape_1020" version="0"/>
			</rt_info>
			<input>
				<port id="0" precision="FP32">
					<dim>1</dim>
					<dim>64</dim>
					<dim>16</dim>
					<dim>64</dim>
				</port>
				<port id="1" precision="FP32">
					<dim>1</dim>
					<dim>64</dim>
					<dim>1</dim>
					<dim>1</dim>
				</port>
			</input>
			<output>
				<port id="2" names="1087" precision="FP32">
					<dim>1</dim>
					<dim>64</dim>
					<dim>16</dim>
					<dim>64</dim>
				</port>
			</output>
		</layer>
		<layer id="126" name="487" type="Add" version="opset1">
			<data auto_broadcast="numpy"/>
			<rt_info>
				<attribute name="fused_names" value="487" version="0"/>
			</rt_info>
			<input>
				<port id="0" precision="FP32">
					<dim>1</dim>
					<dim>64</dim>
					<dim>16</dim>
					<dim>64</dim>
				</port>
				<port id="1" precision="FP32">
					<dim>1</dim>
					<dim>64</dim>
					<dim>16</dim>
					<dim>64</dim>
				</port>
			</input>
			<output>
				<port id="2" names="487" precision="FP32">
					<dim>1</dim>
					<dim>64</dim>
					<dim>16</dim>
					<dim>64</dim>
				</port>
			</output>
		</layer>
		<layer id="127" name="488" type="ReLU" version="opset1">
			<rt_info>
				<attribute name="fused_names" value="488" version="0"/>
			</rt_info>
			<input>
				<port id="0" precision="FP32">
					<dim>1</dim>
					<dim>64</dim>
					<dim>16</dim>
					<dim>64</dim>
				</port>
			</input>
			<output>
				<port id="1" names="488" precision="FP32">
					<dim>1</dim>
					<dim>64</dim>
					<dim>16</dim>
					<dim>64</dim>
				</port>
			</output>
		</layer>
		<layer id="128" name="1091_compressed" type="Const" version="opset1">
			<data element_type="f16" offset="421392" shape="128, 64, 1, 1" size="16384"/>
			<output>
				<port id="0" precision="FP16">
					<dim>128</dim>
					<dim>64</dim>
					<dim>1</dim>
					<dim>1</dim>
				</port>
			</output>
		</layer>
		<layer id="129" name="1091" type="Convert" version="opset1">
			<data destination_type="f32"/>
			<rt_info>
				<attribute name="decompression" version="0"/>
				<attribute name="fused_names" value="1091" version="0"/>
			</rt_info>
			<input>
				<port id="0" precision="FP16">
					<dim>128</dim>
					<dim>64</dim>
					<dim>1</dim>
					<dim>1</dim>
				</port>
			</input>
			<output>
				<port id="1" names="1091" precision="FP32">
					<dim>128</dim>
					<dim>64</dim>
					<dim>1</dim>
					<dim>1</dim>
				</port>
			</output>
		</layer>
		<layer id="130" name="Convolution_1050" type="Convolution" version="opset1">
			<data auto_pad="explicit" dilations="1, 1" pads_begin="0, 0" pads_end="0, 0" strides="1, 1"/>
			<rt_info>
				<attribute name="fused_names" value="Convolution_1050" version="0"/>
			</rt_info>
			<input>
				<port id="0" precision="FP32">
					<dim>1</dim>
					<dim>64</dim>
					<dim>16</dim>
					<dim>64</dim>
				</port>
				<port id="1" precision="FP32">
					<dim>128</dim>
					<dim>64</dim>
					<dim>1</dim>
					<dim>1</dim>
				</port>
			</input>
			<output>
				<port id="2" precision="FP32">
					<dim>1</dim>
					<dim>128</dim>
					<dim>16</dim>
					<dim>64</dim>
				</port>
			</output>
		</layer>
		<layer id="131" name="Reshape_1070_compressed" type="Const" version="opset1">
			<data element_type="f16" offset="437776" shape="1, 128, 1, 1" size="256"/>
			<output>
				<port id="0" precision="FP16">
					<dim>1</dim>
					<dim>128</dim>
					<dim>1</dim>
					<dim>1</dim>
				</port>
			</output>
		</layer>
		<layer id="132" name="Reshape_1070" type="Convert" version="opset1">
			<data destination_type="f32"/>
			<rt_info>
				<attribute name="decompression" version="0"/>
			</rt_info>
			<input>
				<port id="0" precision="FP16">
					<dim>1</dim>
					<dim>128</dim>
					<dim>1</dim>
					<dim>1</dim>
				</port>
			</input>
			<output>
				<port id="1" precision="FP32">
					<dim>1</dim>
					<dim>128</dim>
					<dim>1</dim>
					<dim>1</dim>
				</port>
			</output>
		</layer>
		<layer id="133" name="1090" type="Add" version="opset1">
			<data auto_broadcast="numpy"/>
			<rt_info>
				<attribute name="fused_names" value="1090, Concat_1069, Reshape_1070" version="0"/>
			</rt_info>
			<input>
				<port id="0" precision="FP32">
					<dim>1</dim>
					<dim>128</dim>
					<dim>16</dim>
					<dim>64</dim>
				</port>
				<port id="1" precision="FP32">
					<dim>1</dim>
					<dim>128</dim>
					<dim>1</dim>
					<dim>1</dim>
				</port>
			</input>
			<output>
				<port id="2" names="1090" precision="FP32">
					<dim>1</dim>
					<dim>128</dim>
					<dim>16</dim>
					<dim>64</dim>
				</port>
			</output>
		</layer>
		<layer id="134" name="491" type="ReLU" version="opset1">
			<rt_info>
				<attribute name="fused_names" value="491" version="0"/>
			</rt_info>
			<input>
				<port id="0" precision="FP32">
					<dim>1</dim>
					<dim>128</dim>
					<dim>16</dim>
					<dim>64</dim>
				</port>
			</input>
			<output>
				<port id="1" names="491" precision="FP32">
					<dim>1</dim>
					<dim>128</dim>
					<dim>16</dim>
					<dim>64</dim>
				</port>
			</output>
		</layer>
		<layer id="135" name="1094_compressed" type="Const" version="opset1">
			<data element_type="f16" offset="438032" shape="128, 128, 3, 3" size="294912"/>
			<output>
				<port id="0" precision="FP16">
					<dim>128</dim>
					<dim>128</dim>
					<dim>3</dim>
					<dim>3</dim>
				</port>
			</output>
		</layer>
		<layer id="136" name="1094" type="Convert" version="opset1">
			<data destination_type="f32"/>
			<rt_info>
				<attribute name="decompression" version="0"/>
				<attribute name="fused_names" value="1094" version="0"/>
			</rt_info>
			<input>
				<port id="0" precision="FP16">
					<dim>128</dim>
					<dim>128</dim>
					<dim>3</dim>
					<dim>3</dim>
				</port>
			</input>
			<output>
				<port id="1" names="1094" precision="FP32">
					<dim>128</dim>
					<dim>128</dim>
					<dim>3</dim>
					<dim>3</dim>
				</port>
			</output>
		</layer>
		<layer id="137" name="Convolution_1099" type="Convolution" version="opset1">
			<data auto_pad="explicit" dilations="1, 1" pads_begin="1, 1" pads_end="1, 1" strides="2, 2"/>
			<rt_info>
				<attribute name="fused_names" value="Convolution_1099" version="0"/>
			</rt_info>
			<input>
				<port id="0" precision="FP32">
					<dim>1</dim>
					<dim>128</dim>
					<dim>16</dim>
					<dim>64</dim>
				</port>
				<port id="1" precision="FP32">
					<dim>128</dim>
					<dim>128</dim>
					<dim>3</dim>
					<dim>3</dim>
				</port>
			</input>
			<output>
				<port id="2" precision="FP32">
					<dim>1</dim>
					<dim>128</dim>
					<dim>8</dim>
					<dim>32</dim>
				</port>
			</output>
		</layer>
		<layer id="138" name="Reshape_1119_compressed" type="Const" version="opset1">
			<data element_type="f16" offset="732944" shape="1, 128, 1, 1" size="256"/>
			<output>
				<port id="0" precision="FP16">
					<dim>1</dim>
					<dim>128</dim>
					<dim>1</dim>
					<dim>1</dim>
				</port>
			</output>
		</layer>
		<layer id="139" name="Reshape_1119" type="Convert" version="opset1">
			<data destination_type="f32"/>
			<rt_info>
				<attribute name="decompression" version="0"/>
			</rt_info>
			<input>
				<port id="0" precision="FP16">
					<dim>1</dim>
					<dim>128</dim>
					<dim>1</dim>
					<dim>1</dim>
				</port>
			</input>
			<output>
				<port id="1" precision="FP32">
					<dim>1</dim>
					<dim>128</dim>
					<dim>1</dim>
					<dim>1</dim>
				</port>
			</output>
		</layer>
		<layer id="140" name="1093" type="Add" version="opset1">
			<data auto_broadcast="numpy"/>
			<rt_info>
				<attribute name="fused_names" value="1093, Concat_1118, Reshape_1119" version="0"/>
			</rt_info>
			<input>
				<port id="0" precision="FP32">
					<dim>1</dim>
					<dim>128</dim>
					<dim>8</dim>
					<dim>32</dim>
				</port>
				<port id="1" precision="FP32">
					<dim>1</dim>
					<dim>128</dim>
					<dim>1</dim>
					<dim>1</dim>
				</port>
			</input>
			<output>
				<port id="2" names="1093" precision="FP32">
					<dim>1</dim>
					<dim>128</dim>
					<dim>8</dim>
					<dim>32</dim>
				</port>
			</output>
		</layer>
		<layer id="141" name="1097_compressed" type="Const" version="opset1">
			<data element_type="f16" offset="733200" shape="128, 64, 1, 1" size="16384"/>
			<output>
				<port id="0" precision="FP16">
					<dim>128</dim>
					<dim>64</dim>
					<dim>1</dim>
					<dim>1</dim>
				</port>
			</output>
		</layer>
		<layer id="142" name="1097" type="Convert" version="opset1">
			<data destination_type="f32"/>
			<rt_info>
				<attribute name="decompression" version="0"/>
				<attribute name="fused_names" value="1097" version="0"/>
			</rt_info>
			<input>
				<port id="0" precision="FP16">
					<dim>128</dim>
					<dim>64</dim>
					<dim>1</dim>
					<dim>1</dim>
				</port>
			</input>
			<output>
				<port id="1" names="1097" precision="FP32">
					<dim>128</dim>
					<dim>64</dim>
					<dim>1</dim>
					<dim>1</dim>
				</port>
			</output>
		</layer>
		<layer id="143" name="Convolution_1147" type="Convolution" version="opset1">
			<data auto_pad="explicit" dilations="1, 1" pads_begin="0, 0" pads_end="0, 0" strides="2, 2"/>
			<rt_info>
				<attribute name="fused_names" value="Convolution_1147" version="0"/>
			</rt_info>
			<input>
				<port id="0" precision="FP32">
					<dim>1</dim>
					<dim>64</dim>
					<dim>16</dim>
					<dim>64</dim>
				</port>
				<port id="1" precision="FP32">
					<dim>128</dim>
					<dim>64</dim>
					<dim>1</dim>
					<dim>1</dim>
				</port>
			</input>
			<output>
				<port id="2" precision="FP32">
					<dim>1</dim>
					<dim>128</dim>
					<dim>8</dim>
					<dim>32</dim>
				</port>
			</output>
		</layer>
		<layer id="144" name="Reshape_1167_compressed" type="Const" version="opset1">
			<data element_type="f16" offset="749584" shape="1, 128, 1, 1" size="256"/>
			<output>
				<port id="0" precision="FP16">
					<dim>1</dim>
					<dim>128</dim>
					<dim>1</dim>
					<dim>1</dim>
				</port>
			</output>
		</layer>
		<layer id="145" name="Reshape_1167" type="Convert" version="opset1">
			<data destination_type="f32"/>
			<rt_info>
				<attribute name="decompression" version="0"/>
			</rt_info>
			<input>
				<port id="0" precision="FP16">
					<dim>1</dim>
					<dim>128</dim>
					<dim>1</dim>
					<dim>1</dim>
				</port>
			</input>
			<output>
				<port id="1" precision="FP32">
					<dim>1</dim>
					<dim>128</dim>
					<dim>1</dim>
					<dim>1</dim>
				</port>
			</output>
		</layer>
		<layer id="146" name="1096" type="Add" version="opset1">
			<data auto_broadcast="numpy"/>
			<rt_info>
				<attribute name="fused_names" value="1096, Concat_1166, Reshape_1167" version="0"/>
			</rt_info>
			<input>
				<port id="0" precision="FP32">
					<dim>1</dim>
					<dim>128</dim>
					<dim>8</dim>
					<dim>32</dim>
				</port>
				<port id="1" precision="FP32">
					<dim>1</dim>
					<dim>128</dim>
					<dim>1</dim>
					<dim>1</dim>
				</port>
			</input>
			<output>
				<port id="2" names="1096" precision="FP32">
					<dim>1</dim>
					<dim>128</dim>
					<dim>8</dim>
					<dim>32</dim>
				</port>
			</output>
		</layer>
		<layer id="147" name="496" type="Add" version="opset1">
			<data auto_broadcast="numpy"/>
			<rt_info>
				<attribute name="fused_names" value="496" version="0"/>
			</rt_info>
			<input>
				<port id="0" precision="FP32">
					<dim>1</dim>
					<dim>128</dim>
					<dim>8</dim>
					<dim>32</dim>
				</port>
				<port id="1" precision="FP32">
					<dim>1</dim>
					<dim>128</dim>
					<dim>8</dim>
					<dim>32</dim>
				</port>
			</input>
			<output>
				<port id="2" names="496" precision="FP32">
					<dim>1</dim>
					<dim>128</dim>
					<dim>8</dim>
					<dim>32</dim>
				</port>
			</output>
		</layer>
		<layer id="148" name="497" type="ReLU" version="opset1">
			<rt_info>
				<attribute name="fused_names" value="497" version="0"/>
			</rt_info>
			<input>
				<port id="0" precision="FP32">
					<dim>1</dim>
					<dim>128</dim>
					<dim>8</dim>
					<dim>32</dim>
				</port>
			</input>
			<output>
				<port id="1" names="497" precision="FP32">
					<dim>1</dim>
					<dim>128</dim>
					<dim>8</dim>
					<dim>32</dim>
				</port>
			</output>
		</layer>
		<layer id="149" name="1100_compressed" type="Const" version="opset1">
			<data element_type="f16" offset="749840" shape="128, 128, 1, 1" size="32768"/>
			<output>
				<port id="0" precision="FP16">
					<dim>128</dim>
					<dim>128</dim>
					<dim>1</dim>
					<dim>1</dim>
				</port>
			</output>
		</layer>
		<layer id="150" name="1100" type="Convert" version="opset1">
			<data destination_type="f32"/>
			<rt_info>
				<attribute name="decompression" version="0"/>
				<attribute name="fused_names" value="1100" version="0"/>
			</rt_info>
			<input>
				<port id="0" precision="FP16">
					<dim>128</dim>
					<dim>128</dim>
					<dim>1</dim>
					<dim>1</dim>
				</port>
			</input>
			<output>
				<port id="1" names="1100" precision="FP32">
					<dim>128</dim>
					<dim>128</dim>
					<dim>1</dim>
					<dim>1</dim>
				</port>
			</output>
		</layer>
		<layer id="151" name="Convolution_1197" type="Convolution" version="opset1">
			<data auto_pad="explicit" dilations="1, 1" pads_begin="0, 0" pads_end="0, 0" strides="1, 1"/>
			<rt_info>
				<attribute name="fused_names" value="Convolution_1197" version="0"/>
			</rt_info>
			<input>
				<port id="0" precision="FP32">
					<dim>1</dim>
					<dim>128</dim>
					<dim>8</dim>
					<dim>32</dim>
				</port>
				<port id="1" precision="FP32">
					<dim>128</dim>
					<dim>128</dim>
					<dim>1</dim>
					<dim>1</dim>
				</port>
			</input>
			<output>
				<port id="2" precision="FP32">
					<dim>1</dim>
					<dim>128</dim>
					<dim>8</dim>
					<dim>32</dim>
				</port>
			</output>
		</layer>
		<layer id="152" name="Reshape_1217_compressed" type="Const" version="opset1">
			<data element_type="f16" offset="782608" shape="1, 128, 1, 1" size="256"/>
			<output>
				<port id="0" precision="FP16">
					<dim>1</dim>
					<dim>128</dim>
					<dim>1</dim>
					<dim>1</dim>
				</port>
			</output>
		</layer>
		<layer id="153" name="Reshape_1217" type="Convert" version="opset1">
			<data destination_type="f32"/>
			<rt_info>
				<attribute name="decompression" version="0"/>
			</rt_info>
			<input>
				<port id="0" precision="FP16">
					<dim>1</dim>
					<dim>128</dim>
					<dim>1</dim>
					<dim>1</dim>
				</port>
			</input>
			<output>
				<port id="1" precision="FP32">
					<dim>1</dim>
					<dim>128</dim>
					<dim>1</dim>
					<dim>1</dim>
				</port>
			</output>
		</layer>
		<layer id="154" name="1099" type="Add" version="opset1">
			<data auto_broadcast="numpy"/>
			<rt_info>
				<attribute name="fused_names" value="1099, Concat_1216, Reshape_1217" version="0"/>
			</rt_info>
			<input>
				<port id="0" precision="FP32">
					<dim>1</dim>
					<dim>128</dim>
					<dim>8</dim>
					<dim>32</dim>
				</port>
				<port id="1" precision="FP32">
					<dim>1</dim>
					<dim>128</dim>
					<dim>1</dim>
					<dim>1</dim>
				</port>
			</input>
			<output>
				<port id="2" names="1099" precision="FP32">
					<dim>1</dim>
					<dim>128</dim>
					<dim>8</dim>
					<dim>32</dim>
				</port>
			</output>
		</layer>
		<layer id="155" name="500" type="ReLU" version="opset1">
			<rt_info>
				<attribute name="fused_names" value="500" version="0"/>
			</rt_info>
			<input>
				<port id="0" precision="FP32">
					<dim>1</dim>
					<dim>128</dim>
					<dim>8</dim>
					<dim>32</dim>
				</port>
			</input>
			<output>
				<port id="1" names="500" precision="FP32">
					<dim>1</dim>
					<dim>128</dim>
					<dim>8</dim>
					<dim>32</dim>
				</port>
			</output>
		</layer>
		<layer id="156" name="1103_compressed" type="Const" version="opset1">
			<data element_type="f16" offset="782864" shape="128, 128, 3, 3" size="294912"/>
			<output>
				<port id="0" precision="FP16">
					<dim>128</dim>
					<dim>128</dim>
					<dim>3</dim>
					<dim>3</dim>
				</port>
			</output>
		</layer>
		<layer id="157" name="1103" type="Convert" version="opset1">
			<data destination_type="f32"/>
			<rt_info>
				<attribute name="decompression" version="0"/>
				<attribute name="fused_names" value="1103" version="0"/>
			</rt_info>
			<input>
				<port id="0" precision="FP16">
					<dim>128</dim>
					<dim>128</dim>
					<dim>3</dim>
					<dim>3</dim>
				</port>
			</input>
			<output>
				<port id="1" names="1103" precision="FP32">
					<dim>128</dim>
					<dim>128</dim>
					<dim>3</dim>
					<dim>3</dim>
				</port>
			</output>
		</layer>
		<layer id="158" name="Convolution_1246" type="Convolution" version="opset1">
			<data auto_pad="explicit" dilations="1, 1" pads_begin="1, 1" pads_end="1, 1" strides="1, 1"/>
			<rt_info>
				<attribute name="fused_names" value="Convolution_1246" version="0"/>
			</rt_info>
			<input>
				<port id="0" precision="FP32">
					<dim>1</dim>
					<dim>128</dim>
					<dim>8</dim>
					<dim>32</dim>
				</port>
				<port id="1" precision="FP32">
					<dim>128</dim>
					<dim>128</dim>
					<dim>3</dim>
					<dim>3</dim>
				</port>
			</input>
			<output>
				<port id="2" precision="FP32">
					<dim>1</dim>
					<dim>128</dim>
					<dim>8</dim>
					<dim>32</dim>
				</port>
			</output>
		</layer>
		<layer id="159" name="Reshape_1266_compressed" type="Const" version="opset1">
			<data element_type="f16" offset="1077776" shape="1, 128, 1, 1" size="256"/>
			<output>
				<port id="0" precision="FP16">
					<dim>1</dim>
					<dim>128</dim>
					<dim>1</dim>
					<dim>1</dim>
				</port>
			</output>
		</layer>
		<layer id="160" name="Reshape_1266" type="Convert" version="opset1">
			<data destination_type="f32"/>
			<rt_info>
				<attribute name="decompression" version="0"/>
			</rt_info>
			<input>
				<port id="0" precision="FP16">
					<dim>1</dim>
					<dim>128</dim>
					<dim>1</dim>
					<dim>1</dim>
				</port>
			</input>
			<output>
				<port id="1" precision="FP32">
					<dim>1</dim>
					<dim>128</dim>
					<dim>1</dim>
					<dim>1</dim>
				</port>
			</output>
		</layer>
		<layer id="161" name="1102" type="Add" version="opset1">
			<data auto_broadcast="numpy"/>
			<rt_info>
				<attribute name="fused_names" value="1102, Concat_1265, Reshape_1266" version="0"/>
			</rt_info>
			<input>
				<port id="0" precision="FP32">
					<dim>1</dim>
					<dim>128</dim>
					<dim>8</dim>
					<dim>32</dim>
				</port>
				<port id="1" precision="FP32">
					<dim>1</dim>
					<dim>128</dim>
					<dim>1</dim>
					<dim>1</dim>
				</port>
			</input>
			<output>
				<port id="2" names="1102" precision="FP32">
					<dim>1</dim>
					<dim>128</dim>
					<dim>8</dim>
					<dim>32</dim>
				</port>
			</output>
		</layer>
		<layer id="162" name="503" type="Add" version="opset1">
			<data auto_broadcast="numpy"/>
			<rt_info>
				<attribute name="fused_names" value="503" version="0"/>
			</rt_info>
			<input>
				<port id="0" precision="FP32">
					<dim>1</dim>
					<dim>128</dim>
					<dim>8</dim>
					<dim>32</dim>
				</port>
				<port id="1" precision="FP32">
					<dim>1</dim>
					<dim>128</dim>
					<dim>8</dim>
					<dim>32</dim>
				</port>
			</input>
			<output>
				<port id="2" names="503" precision="FP32">
					<dim>1</dim>
					<dim>128</dim>
					<dim>8</dim>
					<dim>32</dim>
				</port>
			</output>
		</layer>
		<layer id="163" name="504" type="ReLU" version="opset1">
			<rt_info>
				<attribute name="fused_names" value="504" version="0"/>
			</rt_info>
			<input>
				<port id="0" precision="FP32">
					<dim>1</dim>
					<dim>128</dim>
					<dim>8</dim>
					<dim>32</dim>
				</port>
			</input>
			<output>
				<port id="1" names="504" precision="FP32">
					<dim>1</dim>
					<dim>128</dim>
					<dim>8</dim>
					<dim>32</dim>
				</port>
			</output>
		</layer>
		<layer id="164" name="1106_compressed" type="Const" version="opset1">
			<data element_type="f16" offset="1078032" shape="128, 128, 1, 1" size="32768"/>
			<output>
				<port id="0" precision="FP16">
					<dim>128</dim>
					<dim>128</dim>
					<dim>1</dim>
					<dim>1</dim>
				</port>
			</output>
		</layer>
		<layer id="165" name="1106" type="Convert" version="opset1">
			<data destination_type="f32"/>
			<rt_info>
				<attribute name="decompression" version="0"/>
				<attribute name="fused_names" value="1106" version="0"/>
			</rt_info>
			<input>
				<port id="0" precision="FP16">
					<dim>128</dim>
					<dim>128</dim>
					<dim>1</dim>
					<dim>1</dim>
				</port>
			</input>
			<output>
				<port id="1" names="1106" precision="FP32">
					<dim>128</dim>
					<dim>128</dim>
					<dim>1</dim>
					<dim>1</dim>
				</port>
			</output>
		</layer>
		<layer id="166" name="Convolution_1296" type="Convolution" version="opset1">
			<data auto_pad="explicit" dilations="1, 1" pads_begin="0, 0" pads_end="0, 0" strides="1, 1"/>
			<rt_info>
				<attribute name="fused_names" value="Convolution_1296" version="0"/>
			</rt_info>
			<input>
				<port id="0" precision="FP32">
					<dim>1</dim>
					<dim>128</dim>
					<dim>8</dim>
					<dim>32</dim>
				</port>
				<port id="1" precision="FP32">
					<dim>128</dim>
					<dim>128</dim>
					<dim>1</dim>
					<dim>1</dim>
				</port>
			</input>
			<output>
				<port id="2" precision="FP32">
					<dim>1</dim>
					<dim>128</dim>
					<dim>8</dim>
					<dim>32</dim>
				</port>
			</output>
		</layer>
		<layer id="167" name="Reshape_1316_compressed" type="Const" version="opset1">
			<data element_type="f16" offset="1110800" shape="1, 128, 1, 1" size="256"/>
			<output>
				<port id="0" precision="FP16">
					<dim>1</dim>
					<dim>128</dim>
					<dim>1</dim>
					<dim>1</dim>
				</port>
			</output>
		</layer>
		<layer id="168" name="Reshape_1316" type="Convert" version="opset1">
			<data destination_type="f32"/>
			<rt_info>
				<attribute name="decompression" version="0"/>
			</rt_info>
			<input>
				<port id="0" precision="FP16">
					<dim>1</dim>
					<dim>128</dim>
					<dim>1</dim>
					<dim>1</dim>
				</port>
			</input>
			<output>
				<port id="1" precision="FP32">
					<dim>1</dim>
					<dim>128</dim>
					<dim>1</dim>
					<dim>1</dim>
				</port>
			</output>
		</layer>
		<layer id="169" name="1105" type="Add" version="opset1">
			<data auto_broadcast="numpy"/>
			<rt_info>
				<attribute name="fused_names" value="1105, Concat_1315, Reshape_1316" version="0"/>
			</rt_info>
			<input>
				<port id="0" precision="FP32">
					<dim>1</dim>
					<dim>128</dim>
					<dim>8</dim>
					<dim>32</dim>
				</port>
				<port id="1" precision="FP32">
					<dim>1</dim>
					<dim>128</dim>
					<dim>1</dim>
					<dim>1</dim>
				</port>
			</input>
			<output>
				<port id="2" names="1105" precision="FP32">
					<dim>1</dim>
					<dim>128</dim>
					<dim>8</dim>
					<dim>32</dim>
				</port>
			</output>
		</layer>
		<layer id="170" name="507" type="ReLU" version="opset1">
			<rt_info>
				<attribute name="fused_names" value="507" version="0"/>
			</rt_info>
			<input>
				<port id="0" precision="FP32">
					<dim>1</dim>
					<dim>128</dim>
					<dim>8</dim>
					<dim>32</dim>
				</port>
			</input>
			<output>
				<port id="1" names="507" precision="FP32">
					<dim>1</dim>
					<dim>128</dim>
					<dim>8</dim>
					<dim>32</dim>
				</port>
			</output>
		</layer>
		<layer id="171" name="1109_compressed" type="Const" version="opset1">
			<data element_type="f16" offset="1111056" shape="128, 128, 3, 3" size="294912"/>
			<output>
				<port id="0" precision="FP16">
					<dim>128</dim>
					<dim>128</dim>
					<dim>3</dim>
					<dim>3</dim>
				</port>
			</output>
		</layer>
		<layer id="172" name="1109" type="Convert" version="opset1">
			<data destination_type="f32"/>
			<rt_info>
				<attribute name="decompression" version="0"/>
				<attribute name="fused_names" value="1109" version="0"/>
			</rt_info>
			<input>
				<port id="0" precision="FP16">
					<dim>128</dim>
					<dim>128</dim>
					<dim>3</dim>
					<dim>3</dim>
				</port>
			</input>
			<output>
				<port id="1" names="1109" precision="FP32">
					<dim>128</dim>
					<dim>128</dim>
					<dim>3</dim>
					<dim>3</dim>
				</port>
			</output>
		</layer>
		<layer id="173" name="Convolution_1345" type="Convolution" version="opset1">
			<data auto_pad="explicit" dilations="1, 1" pads_begin="1, 1" pads_end="1, 1" strides="1, 1"/>
			<rt_info>
				<attribute name="fused_names" value="Convolution_1345" version="0"/>
			</rt_info>
			<input>
				<port id="0" precision="FP32">
					<dim>1</dim>
					<dim>128</dim>
					<dim>8</dim>
					<dim>32</dim>
				</port>
				<port id="1" precision="FP32">
					<dim>128</dim>
					<dim>128</dim>
					<dim>3</dim>
					<dim>3</dim>
				</port>
			</input>
			<output>
				<port id="2" precision="FP32">
					<dim>1</dim>
					<dim>128</dim>
					<dim>8</dim>
					<dim>32</dim>
				</port>
			</output>
		</layer>
		<layer id="174" name="Reshape_1365_compressed" type="Const" version="opset1">
			<data element_type="f16" offset="1405968" shape="1, 128, 1, 1" size="256"/>
			<output>
				<port id="0" precision="FP16">
					<dim>1</dim>
					<dim>128</dim>
					<dim>1</dim>
					<dim>1</dim>
				</port>
			</output>
		</layer>
		<layer id="175" name="Reshape_1365" type="Convert" version="opset1">
			<data destination_type="f32"/>
			<rt_info>
				<attribute name="decompression" version="0"/>
			</rt_info>
			<input>
				<port id="0" precision="FP16">
					<dim>1</dim>
					<dim>128</dim>
					<dim>1</dim>
					<dim>1</dim>
				</port>
			</input>
			<output>
				<port id="1" precision="FP32">
					<dim>1</dim>
					<dim>128</dim>
					<dim>1</dim>
					<dim>1</dim>
				</port>
			</output>
		</layer>
		<layer id="176" name="1108" type="Add" version="opset1">
			<data auto_broadcast="numpy"/>
			<rt_info>
				<attribute name="fused_names" value="1108, Concat_1364, Reshape_1365" version="0"/>
			</rt_info>
			<input>
				<port id="0" precision="FP32">
					<dim>1</dim>
					<dim>128</dim>
					<dim>8</dim>
					<dim>32</dim>
				</port>
				<port id="1" precision="FP32">
					<dim>1</dim>
					<dim>128</dim>
					<dim>1</dim>
					<dim>1</dim>
				</port>
			</input>
			<output>
				<port id="2" names="1108" precision="FP32">
					<dim>1</dim>
					<dim>128</dim>
					<dim>8</dim>
					<dim>32</dim>
				</port>
			</output>
		</layer>
		<layer id="177" name="510" type="Add" version="opset1">
			<data auto_broadcast="numpy"/>
			<rt_info>
				<attribute name="fused_names" value="510" version="0"/>
			</rt_info>
			<input>
				<port id="0" precision="FP32">
					<dim>1</dim>
					<dim>128</dim>
					<dim>8</dim>
					<dim>32</dim>
				</port>
				<port id="1" precision="FP32">
					<dim>1</dim>
					<dim>128</dim>
					<dim>8</dim>
					<dim>32</dim>
				</port>
			</input>
			<output>
				<port id="2" names="510" precision="FP32">
					<dim>1</dim>
					<dim>128</dim>
					<dim>8</dim>
					<dim>32</dim>
				</port>
			</output>
		</layer>
		<layer id="178" name="511" type="ReLU" version="opset1">
			<rt_info>
				<attribute name="fused_names" value="511" version="0"/>
			</rt_info>
			<input>
				<port id="0" precision="FP32">
					<dim>1</dim>
					<dim>128</dim>
					<dim>8</dim>
					<dim>32</dim>
				</port>
			</input>
			<output>
				<port id="1" names="511" precision="FP32">
					<dim>1</dim>
					<dim>128</dim>
					<dim>8</dim>
					<dim>32</dim>
				</port>
			</output>
		</layer>
		<layer id="179" name="1112_compressed" type="Const" version="opset1">
			<data element_type="f16" offset="1406224" shape="128, 128, 1, 1" size="32768"/>
			<output>
				<port id="0" precision="FP16">
					<dim>128</dim>
					<dim>128</dim>
					<dim>1</dim>
					<dim>1</dim>
				</port>
			</output>
		</layer>
		<layer id="180" name="1112" type="Convert" version="opset1">
			<data destination_type="f32"/>
			<rt_info>
				<attribute name="decompression" version="0"/>
				<attribute name="fused_names" value="1112" version="0"/>
			</rt_info>
			<input>
				<port id="0" precision="FP16">
					<dim>128</dim>
					<dim>128</dim>
					<dim>1</dim>
					<dim>1</dim>
				</port>
			</input>
			<output>
				<port id="1" names="1112" precision="FP32">
					<dim>128</dim>
					<dim>128</dim>
					<dim>1</dim>
					<dim>1</dim>
				</port>
			</output>
		</layer>
		<layer id="181" name="Convolution_1395" type="Convolution" version="opset1">
			<data auto_pad="explicit" dilations="1, 1" pads_begin="0, 0" pads_end="0, 0" strides="1, 1"/>
			<rt_info>
				<attribute name="fused_names" value="Convolution_1395" version="0"/>
			</rt_info>
			<input>
				<port id="0" precision="FP32">
					<dim>1</dim>
					<dim>128</dim>
					<dim>8</dim>
					<dim>32</dim>
				</port>
				<port id="1" precision="FP32">
					<dim>128</dim>
					<dim>128</dim>
					<dim>1</dim>
					<dim>1</dim>
				</port>
			</input>
			<output>
				<port id="2" precision="FP32">
					<dim>1</dim>
					<dim>128</dim>
					<dim>8</dim>
					<dim>32</dim>
				</port>
			</output>
		</layer>
		<layer id="182" name="Reshape_1415_compressed" type="Const" version="opset1">
			<data element_type="f16" offset="1438992" shape="1, 128, 1, 1" size="256"/>
			<output>
				<port id="0" precision="FP16">
					<dim>1</dim>
					<dim>128</dim>
					<dim>1</dim>
					<dim>1</dim>
				</port>
			</output>
		</layer>
		<layer id="183" name="Reshape_1415" type="Convert" version="opset1">
			<data destination_type="f32"/>
			<rt_info>
				<attribute name="decompression" version="0"/>
			</rt_info>
			<input>
				<port id="0" precision="FP16">
					<dim>1</dim>
					<dim>128</dim>
					<dim>1</dim>
					<dim>1</dim>
				</port>
			</input>
			<output>
				<port id="1" precision="FP32">
					<dim>1</dim>
					<dim>128</dim>
					<dim>1</dim>
					<dim>1</dim>
				</port>
			</output>
		</layer>
		<layer id="184" name="1111" type="Add" version="opset1">
			<data auto_broadcast="numpy"/>
			<rt_info>
				<attribute name="fused_names" value="1111, Concat_1414, Reshape_1415" version="0"/>
			</rt_info>
			<input>
				<port id="0" precision="FP32">
					<dim>1</dim>
					<dim>128</dim>
					<dim>8</dim>
					<dim>32</dim>
				</port>
				<port id="1" precision="FP32">
					<dim>1</dim>
					<dim>128</dim>
					<dim>1</dim>
					<dim>1</dim>
				</port>
			</input>
			<output>
				<port id="2" names="1111" precision="FP32">
					<dim>1</dim>
					<dim>128</dim>
					<dim>8</dim>
					<dim>32</dim>
				</port>
			</output>
		</layer>
		<layer id="185" name="514" type="ReLU" version="opset1">
			<rt_info>
				<attribute name="fused_names" value="514" version="0"/>
			</rt_info>
			<input>
				<port id="0" precision="FP32">
					<dim>1</dim>
					<dim>128</dim>
					<dim>8</dim>
					<dim>32</dim>
				</port>
			</input>
			<output>
				<port id="1" names="514" precision="FP32">
					<dim>1</dim>
					<dim>128</dim>
					<dim>8</dim>
					<dim>32</dim>
				</port>
			</output>
		</layer>
		<layer id="186" name="1115_compressed" type="Const" version="opset1">
			<data element_type="f16" offset="1439248" shape="128, 128, 3, 3" size="294912"/>
			<output>
				<port id="0" precision="FP16">
					<dim>128</dim>
					<dim>128</dim>
					<dim>3</dim>
					<dim>3</dim>
				</port>
			</output>
		</layer>
		<layer id="187" name="1115" type="Convert" version="opset1">
			<data destination_type="f32"/>
			<rt_info>
				<attribute name="decompression" version="0"/>
				<attribute name="fused_names" value="1115" version="0"/>
			</rt_info>
			<input>
				<port id="0" precision="FP16">
					<dim>128</dim>
					<dim>128</dim>
					<dim>3</dim>
					<dim>3</dim>
				</port>
			</input>
			<output>
				<port id="1" names="1115" precision="FP32">
					<dim>128</dim>
					<dim>128</dim>
					<dim>3</dim>
					<dim>3</dim>
				</port>
			</output>
		</layer>
		<layer id="188" name="Convolution_1444" type="Convolution" version="opset1">
			<data auto_pad="explicit" dilations="1, 1" pads_begin="1, 1" pads_end="1, 1" strides="1, 1"/>
			<rt_info>
				<attribute name="fused_names" value="Convolution_1444" version="0"/>
			</rt_info>
			<input>
				<port id="0" precision="FP32">
					<dim>1</dim>
					<dim>128</dim>
					<dim>8</dim>
					<dim>32</dim>
				</port>
				<port id="1" precision="FP32">
					<dim>128</dim>
					<dim>128</dim>
					<dim>3</dim>
					<dim>3</dim>
				</port>
			</input>
			<output>
				<port id="2" precision="FP32">
					<dim>1</dim>
					<dim>128</dim>
					<dim>8</dim>
					<dim>32</dim>
				</port>
			</output>
		</layer>
		<layer id="189" name="Reshape_1464_compressed" type="Const" version="opset1">
			<data element_type="f16" offset="1734160" shape="1, 128, 1, 1" size="256"/>
			<output>
				<port id="0" precision="FP16">
					<dim>1</dim>
					<dim>128</dim>
					<dim>1</dim>
					<dim>1</dim>
				</port>
			</output>
		</layer>
		<layer id="190" name="Reshape_1464" type="Convert" version="opset1">
			<data destination_type="f32"/>
			<rt_info>
				<attribute name="decompression" version="0"/>
			</rt_info>
			<input>
				<port id="0" precision="FP16">
					<dim>1</dim>
					<dim>128</dim>
					<dim>1</dim>
					<dim>1</dim>
				</port>
			</input>
			<output>
				<port id="1" precision="FP32">
					<dim>1</dim>
					<dim>128</dim>
					<dim>1</dim>
					<dim>1</dim>
				</port>
			</output>
		</layer>
		<layer id="191" name="1114" type="Add" version="opset1">
			<data auto_broadcast="numpy"/>
			<rt_info>
				<attribute name="fused_names" value="1114, Concat_1463, Reshape_1464" version="0"/>
			</rt_info>
			<input>
				<port id="0" precision="FP32">
					<dim>1</dim>
					<dim>128</dim>
					<dim>8</dim>
					<dim>32</dim>
				</port>
				<port id="1" precision="FP32">
					<dim>1</dim>
					<dim>128</dim>
					<dim>1</dim>
					<dim>1</dim>
				</port>
			</input>
			<output>
				<port id="2" names="1114" precision="FP32">
					<dim>1</dim>
					<dim>128</dim>
					<dim>8</dim>
					<dim>32</dim>
				</port>
			</output>
		</layer>
		<layer id="192" name="517" type="Add" version="opset1">
			<data auto_broadcast="numpy"/>
			<rt_info>
				<attribute name="fused_names" value="517" version="0"/>
			</rt_info>
			<input>
				<port id="0" precision="FP32">
					<dim>1</dim>
					<dim>128</dim>
					<dim>8</dim>
					<dim>32</dim>
				</port>
				<port id="1" precision="FP32">
					<dim>1</dim>
					<dim>128</dim>
					<dim>8</dim>
					<dim>32</dim>
				</port>
			</input>
			<output>
				<port id="2" names="517" precision="FP32">
					<dim>1</dim>
					<dim>128</dim>
					<dim>8</dim>
					<dim>32</dim>
				</port>
			</output>
		</layer>
		<layer id="193" name="518" type="ReLU" version="opset1">
			<rt_info>
				<attribute name="fused_names" value="518" version="0"/>
			</rt_info>
			<input>
				<port id="0" precision="FP32">
					<dim>1</dim>
					<dim>128</dim>
					<dim>8</dim>
					<dim>32</dim>
				</port>
			</input>
			<output>
				<port id="1" names="518" precision="FP32">
					<dim>1</dim>
					<dim>128</dim>
					<dim>8</dim>
					<dim>32</dim>
				</port>
			</output>
		</layer>
		<layer id="194" name="1118_compressed" type="Const" version="opset1">
			<data element_type="f16" offset="1734416" shape="128, 128, 1, 1" size="32768"/>
			<output>
				<port id="0" precision="FP16">
					<dim>128</dim>
					<dim>128</dim>
					<dim>1</dim>
					<dim>1</dim>
				</port>
			</output>
		</layer>
		<layer id="195" name="1118" type="Convert" version="opset1">
			<data destination_type="f32"/>
			<rt_info>
				<attribute name="decompression" version="0"/>
				<attribute name="fused_names" value="1118" version="0"/>
			</rt_info>
			<input>
				<port id="0" precision="FP16">
					<dim>128</dim>
					<dim>128</dim>
					<dim>1</dim>
					<dim>1</dim>
				</port>
			</input>
			<output>
				<port id="1" names="1118" precision="FP32">
					<dim>128</dim>
					<dim>128</dim>
					<dim>1</dim>
					<dim>1</dim>
				</port>
			</output>
		</layer>
		<layer id="196" name="Convolution_1494" type="Convolution" version="opset1">
			<data auto_pad="explicit" dilations="1, 1" pads_begin="0, 0" pads_end="0, 0" strides="1, 1"/>
			<rt_info>
				<attribute name="fused_names" value="Convolution_1494" version="0"/>
			</rt_info>
			<input>
				<port id="0" precision="FP32">
					<dim>1</dim>
					<dim>128</dim>
					<dim>8</dim>
					<dim>32</dim>
				</port>
				<port id="1" precision="FP32">
					<dim>128</dim>
					<dim>128</dim>
					<dim>1</dim>
					<dim>1</dim>
				</port>
			</input>
			<output>
				<port id="2" precision="FP32">
					<dim>1</dim>
					<dim>128</dim>
					<dim>8</dim>
					<dim>32</dim>
				</port>
			</output>
		</layer>
		<layer id="197" name="Reshape_1514_compressed" type="Const" version="opset1">
			<data element_type="f16" offset="1767184" shape="1, 128, 1, 1" size="256"/>
			<output>
				<port id="0" precision="FP16">
					<dim>1</dim>
					<dim>128</dim>
					<dim>1</dim>
					<dim>1</dim>
				</port>
			</output>
		</layer>
		<layer id="198" name="Reshape_1514" type="Convert" version="opset1">
			<data destination_type="f32"/>
			<rt_info>
				<attribute name="decompression" version="0"/>
			</rt_info>
			<input>
				<port id="0" precision="FP16">
					<dim>1</dim>
					<dim>128</dim>
					<dim>1</dim>
					<dim>1</dim>
				</port>
			</input>
			<output>
				<port id="1" precision="FP32">
					<dim>1</dim>
					<dim>128</dim>
					<dim>1</dim>
					<dim>1</dim>
				</port>
			</output>
		</layer>
		<layer id="199" name="1117" type="Add" version="opset1">
			<data auto_broadcast="numpy"/>
			<rt_info>
				<attribute name="fused_names" value="1117, Concat_1513, Reshape_1514" version="0"/>
			</rt_info>
			<input>
				<port id="0" precision="FP32">
					<dim>1</dim>
					<dim>128</dim>
					<dim>8</dim>
					<dim>32</dim>
				</port>
				<port id="1" precision="FP32">
					<dim>1</dim>
					<dim>128</dim>
					<dim>1</dim>
					<dim>1</dim>
				</port>
			</input>
			<output>
				<port id="2" names="1117" precision="FP32">
					<dim>1</dim>
					<dim>128</dim>
					<dim>8</dim>
					<dim>32</dim>
				</port>
			</output>
		</layer>
		<layer id="200" name="521" type="ReLU" version="opset1">
			<rt_info>
				<attribute name="fused_names" value="521" version="0"/>
			</rt_info>
			<input>
				<port id="0" precision="FP32">
					<dim>1</dim>
					<dim>128</dim>
					<dim>8</dim>
					<dim>32</dim>
				</port>
			</input>
			<output>
				<port id="1" names="521" precision="FP32">
					<dim>1</dim>
					<dim>128</dim>
					<dim>8</dim>
					<dim>32</dim>
				</port>
			</output>
		</layer>
		<layer id="201" name="1121_compressed" type="Const" version="opset1">
			<data element_type="f16" offset="1767440" shape="128, 128, 3, 3" size="294912"/>
			<output>
				<port id="0" precision="FP16">
					<dim>128</dim>
					<dim>128</dim>
					<dim>3</dim>
					<dim>3</dim>
				</port>
			</output>
		</layer>
		<layer id="202" name="1121" type="Convert" version="opset1">
			<data destination_type="f32"/>
			<rt_info>
				<attribute name="decompression" version="0"/>
				<attribute name="fused_names" value="1121" version="0"/>
			</rt_info>
			<input>
				<port id="0" precision="FP16">
					<dim>128</dim>
					<dim>128</dim>
					<dim>3</dim>
					<dim>3</dim>
				</port>
			</input>
			<output>
				<port id="1" names="1121" precision="FP32">
					<dim>128</dim>
					<dim>128</dim>
					<dim>3</dim>
					<dim>3</dim>
				</port>
			</output>
		</layer>
		<layer id="203" name="Convolution_1543" type="Convolution" version="opset1">
			<data auto_pad="explicit" dilations="1, 1" pads_begin="1, 1" pads_end="1, 1" strides="1, 1"/>
			<rt_info>
				<attribute name="fused_names" value="Convolution_1543" version="0"/>
			</rt_info>
			<input>
				<port id="0" precision="FP32">
					<dim>1</dim>
					<dim>128</dim>
					<dim>8</dim>
					<dim>32</dim>
				</port>
				<port id="1" precision="FP32">
					<dim>128</dim>
					<dim>128</dim>
					<dim>3</dim>
					<dim>3</dim>
				</port>
			</input>
			<output>
				<port id="2" precision="FP32">
					<dim>1</dim>
					<dim>128</dim>
					<dim>8</dim>
					<dim>32</dim>
				</port>
			</output>
		</layer>
		<layer id="204" name="Reshape_1563_compressed" type="Const" version="opset1">
			<data element_type="f16" offset="2062352" shape="1, 128, 1, 1" size="256"/>
			<output>
				<port id="0" precision="FP16">
					<dim>1</dim>
					<dim>128</dim>
					<dim>1</dim>
					<dim>1</dim>
				</port>
			</output>
		</layer>
		<layer id="205" name="Reshape_1563" type="Convert" version="opset1">
			<data destination_type="f32"/>
			<rt_info>
				<attribute name="decompression" version="0"/>
			</rt_info>
			<input>
				<port id="0" precision="FP16">
					<dim>1</dim>
					<dim>128</dim>
					<dim>1</dim>
					<dim>1</dim>
				</port>
			</input>
			<output>
				<port id="1" precision="FP32">
					<dim>1</dim>
					<dim>128</dim>
					<dim>1</dim>
					<dim>1</dim>
				</port>
			</output>
		</layer>
		<layer id="206" name="1120" type="Add" version="opset1">
			<data auto_broadcast="numpy"/>
			<rt_info>
				<attribute name="fused_names" value="1120, Concat_1562, Reshape_1563" version="0"/>
			</rt_info>
			<input>
				<port id="0" precision="FP32">
					<dim>1</dim>
					<dim>128</dim>
					<dim>8</dim>
					<dim>32</dim>
				</port>
				<port id="1" precision="FP32">
					<dim>1</dim>
					<dim>128</dim>
					<dim>1</dim>
					<dim>1</dim>
				</port>
			</input>
			<output>
				<port id="2" names="1120" precision="FP32">
					<dim>1</dim>
					<dim>128</dim>
					<dim>8</dim>
					<dim>32</dim>
				</port>
			</output>
		</layer>
		<layer id="207" name="524" type="Add" version="opset1">
			<data auto_broadcast="numpy"/>
			<rt_info>
				<attribute name="fused_names" value="524" version="0"/>
			</rt_info>
			<input>
				<port id="0" precision="FP32">
					<dim>1</dim>
					<dim>128</dim>
					<dim>8</dim>
					<dim>32</dim>
				</port>
				<port id="1" precision="FP32">
					<dim>1</dim>
					<dim>128</dim>
					<dim>8</dim>
					<dim>32</dim>
				</port>
			</input>
			<output>
				<port id="2" names="524" precision="FP32">
					<dim>1</dim>
					<dim>128</dim>
					<dim>8</dim>
					<dim>32</dim>
				</port>
			</output>
		</layer>
		<layer id="208" name="525" type="ReLU" version="opset1">
			<rt_info>
				<attribute name="fused_names" value="525" version="0"/>
			</rt_info>
			<input>
				<port id="0" precision="FP32">
					<dim>1</dim>
					<dim>128</dim>
					<dim>8</dim>
					<dim>32</dim>
				</port>
			</input>
			<output>
				<port id="1" names="525" precision="FP32">
					<dim>1</dim>
					<dim>128</dim>
					<dim>8</dim>
					<dim>32</dim>
				</port>
			</output>
		</layer>
		<layer id="209" name="1124_compressed" type="Const" version="opset1">
			<data element_type="f16" offset="2062608" shape="128, 128, 1, 1" size="32768"/>
			<output>
				<port id="0" precision="FP16">
					<dim>128</dim>
					<dim>128</dim>
					<dim>1</dim>
					<dim>1</dim>
				</port>
			</output>
		</layer>
		<layer id="210" name="1124" type="Convert" version="opset1">
			<data destination_type="f32"/>
			<rt_info>
				<attribute name="decompression" version="0"/>
				<attribute name="fused_names" value="1124" version="0"/>
			</rt_info>
			<input>
				<port id="0" precision="FP16">
					<dim>128</dim>
					<dim>128</dim>
					<dim>1</dim>
					<dim>1</dim>
				</port>
			</input>
			<output>
				<port id="1" names="1124" precision="FP32">
					<dim>128</dim>
					<dim>128</dim>
					<dim>1</dim>
					<dim>1</dim>
				</port>
			</output>
		</layer>
		<layer id="211" name="Convolution_1593" type="Convolution" version="opset1">
			<data auto_pad="explicit" dilations="1, 1" pads_begin="0, 0" pads_end="0, 0" strides="1, 1"/>
			<rt_info>
				<attribute name="fused_names" value="Convolution_1593" version="0"/>
			</rt_info>
			<input>
				<port id="0" precision="FP32">
					<dim>1</dim>
					<dim>128</dim>
					<dim>8</dim>
					<dim>32</dim>
				</port>
				<port id="1" precision="FP32">
					<dim>128</dim>
					<dim>128</dim>
					<dim>1</dim>
					<dim>1</dim>
				</port>
			</input>
			<output>
				<port id="2" precision="FP32">
					<dim>1</dim>
					<dim>128</dim>
					<dim>8</dim>
					<dim>32</dim>
				</port>
			</output>
		</layer>
		<layer id="212" name="Reshape_1613_compressed" type="Const" version="opset1">
			<data element_type="f16" offset="2095376" shape="1, 128, 1, 1" size="256"/>
			<output>
				<port id="0" precision="FP16">
					<dim>1</dim>
					<dim>128</dim>
					<dim>1</dim>
					<dim>1</dim>
				</port>
			</output>
		</layer>
		<layer id="213" name="Reshape_1613" type="Convert" version="opset1">
			<data destination_type="f32"/>
			<rt_info>
				<attribute name="decompression" version="0"/>
			</rt_info>
			<input>
				<port id="0" precision="FP16">
					<dim>1</dim>
					<dim>128</dim>
					<dim>1</dim>
					<dim>1</dim>
				</port>
			</input>
			<output>
				<port id="1" precision="FP32">
					<dim>1</dim>
					<dim>128</dim>
					<dim>1</dim>
					<dim>1</dim>
				</port>
			</output>
		</layer>
		<layer id="214" name="1123" type="Add" version="opset1">
			<data auto_broadcast="numpy"/>
			<rt_info>
				<attribute name="fused_names" value="1123, Concat_1612, Reshape_1613" version="0"/>
			</rt_info>
			<input>
				<port id="0" precision="FP32">
					<dim>1</dim>
					<dim>128</dim>
					<dim>8</dim>
					<dim>32</dim>
				</port>
				<port id="1" precision="FP32">
					<dim>1</dim>
					<dim>128</dim>
					<dim>1</dim>
					<dim>1</dim>
				</port>
			</input>
			<output>
				<port id="2" names="1123" precision="FP32">
					<dim>1</dim>
					<dim>128</dim>
					<dim>8</dim>
					<dim>32</dim>
				</port>
			</output>
		</layer>
		<layer id="215" name="528" type="ReLU" version="opset1">
			<rt_info>
				<attribute name="fused_names" value="528" version="0"/>
			</rt_info>
			<input>
				<port id="0" precision="FP32">
					<dim>1</dim>
					<dim>128</dim>
					<dim>8</dim>
					<dim>32</dim>
				</port>
			</input>
			<output>
				<port id="1" names="528" precision="FP32">
					<dim>1</dim>
					<dim>128</dim>
					<dim>8</dim>
					<dim>32</dim>
				</port>
			</output>
		</layer>
		<layer id="216" name="1127_compressed" type="Const" version="opset1">
			<data element_type="f16" offset="2095632" shape="128, 128, 3, 3" size="294912"/>
			<output>
				<port id="0" precision="FP16">
					<dim>128</dim>
					<dim>128</dim>
					<dim>3</dim>
					<dim>3</dim>
				</port>
			</output>
		</layer>
		<layer id="217" name="1127" type="Convert" version="opset1">
			<data destination_type="f32"/>
			<rt_info>
				<attribute name="decompression" version="0"/>
				<attribute name="fused_names" value="1127" version="0"/>
			</rt_info>
			<input>
				<port id="0" precision="FP16">
					<dim>128</dim>
					<dim>128</dim>
					<dim>3</dim>
					<dim>3</dim>
				</port>
			</input>
			<output>
				<port id="1" names="1127" precision="FP32">
					<dim>128</dim>
					<dim>128</dim>
					<dim>3</dim>
					<dim>3</dim>
				</port>
			</output>
		</layer>
		<layer id="218" name="Convolution_1642" type="Convolution" version="opset1">
			<data auto_pad="explicit" dilations="1, 1" pads_begin="1, 1" pads_end="1, 1" strides="1, 1"/>
			<rt_info>
				<attribute name="fused_names" value="Convolution_1642" version="0"/>
			</rt_info>
			<input>
				<port id="0" precision="FP32">
					<dim>1</dim>
					<dim>128</dim>
					<dim>8</dim>
					<dim>32</dim>
				</port>
				<port id="1" precision="FP32">
					<dim>128</dim>
					<dim>128</dim>
					<dim>3</dim>
					<dim>3</dim>
				</port>
			</input>
			<output>
				<port id="2" precision="FP32">
					<dim>1</dim>
					<dim>128</dim>
					<dim>8</dim>
					<dim>32</dim>
				</port>
			</output>
		</layer>
		<layer id="219" name="Reshape_1662_compressed" type="Const" version="opset1">
			<data element_type="f16" offset="2390544" shape="1, 128, 1, 1" size="256"/>
			<output>
				<port id="0" precision="FP16">
					<dim>1</dim>
					<dim>128</dim>
					<dim>1</dim>
					<dim>1</dim>
				</port>
			</output>
		</layer>
		<layer id="220" name="Reshape_1662" type="Convert" version="opset1">
			<data destination_type="f32"/>
			<rt_info>
				<attribute name="decompression" version="0"/>
			</rt_info>
			<input>
				<port id="0" precision="FP16">
					<dim>1</dim>
					<dim>128</dim>
					<dim>1</dim>
					<dim>1</dim>
				</port>
			</input>
			<output>
				<port id="1" precision="FP32">
					<dim>1</dim>
					<dim>128</dim>
					<dim>1</dim>
					<dim>1</dim>
				</port>
			</output>
		</layer>
		<layer id="221" name="1126" type="Add" version="opset1">
			<data auto_broadcast="numpy"/>
			<rt_info>
				<attribute name="fused_names" value="1126, Concat_1661, Reshape_1662" version="0"/>
			</rt_info>
			<input>
				<port id="0" precision="FP32">
					<dim>1</dim>
					<dim>128</dim>
					<dim>8</dim>
					<dim>32</dim>
				</port>
				<port id="1" precision="FP32">
					<dim>1</dim>
					<dim>128</dim>
					<dim>1</dim>
					<dim>1</dim>
				</port>
			</input>
			<output>
				<port id="2" names="1126" precision="FP32">
					<dim>1</dim>
					<dim>128</dim>
					<dim>8</dim>
					<dim>32</dim>
				</port>
			</output>
		</layer>
		<layer id="222" name="531" type="Add" version="opset1">
			<data auto_broadcast="numpy"/>
			<rt_info>
				<attribute name="fused_names" value="531" version="0"/>
			</rt_info>
			<input>
				<port id="0" precision="FP32">
					<dim>1</dim>
					<dim>128</dim>
					<dim>8</dim>
					<dim>32</dim>
				</port>
				<port id="1" precision="FP32">
					<dim>1</dim>
					<dim>128</dim>
					<dim>8</dim>
					<dim>32</dim>
				</port>
			</input>
			<output>
				<port id="2" names="531" precision="FP32">
					<dim>1</dim>
					<dim>128</dim>
					<dim>8</dim>
					<dim>32</dim>
				</port>
			</output>
		</layer>
		<layer id="223" name="532" type="ReLU" version="opset1">
			<rt_info>
				<attribute name="fused_names" value="532" version="0"/>
			</rt_info>
			<input>
				<port id="0" precision="FP32">
					<dim>1</dim>
					<dim>128</dim>
					<dim>8</dim>
					<dim>32</dim>
				</port>
			</input>
			<output>
				<port id="1" names="532" precision="FP32">
					<dim>1</dim>
					<dim>128</dim>
					<dim>8</dim>
					<dim>32</dim>
				</port>
			</output>
		</layer>
		<layer id="224" name="1130_compressed" type="Const" version="opset1">
			<data element_type="f16" offset="2390800" shape="256, 128, 1, 1" size="65536"/>
			<output>
				<port id="0" precision="FP16">
					<dim>256</dim>
					<dim>128</dim>
					<dim>1</dim>
					<dim>1</dim>
				</port>
			</output>
		</layer>
		<layer id="225" name="1130" type="Convert" version="opset1">
			<data destination_type="f32"/>
			<rt_info>
				<attribute name="decompression" version="0"/>
				<attribute name="fused_names" value="1130" version="0"/>
			</rt_info>
			<input>
				<port id="0" precision="FP16">
					<dim>256</dim>
					<dim>128</dim>
					<dim>1</dim>
					<dim>1</dim>
				</port>
			</input>
			<output>
				<port id="1" names="1130" precision="FP32">
					<dim>256</dim>
					<dim>128</dim>
					<dim>1</dim>
					<dim>1</dim>
				</port>
			</output>
		</layer>
		<layer id="226" name="Convolution_1692" type="Convolution" version="opset1">
			<data auto_pad="explicit" dilations="1, 1" pads_begin="0, 0" pads_end="0, 0" strides="1, 1"/>
			<rt_info>
				<attribute name="fused_names" value="Convolution_1692" version="0"/>
			</rt_info>
			<input>
				<port id="0" precision="FP32">
					<dim>1</dim>
					<dim>128</dim>
					<dim>8</dim>
					<dim>32</dim>
				</port>
				<port id="1" precision="FP32">
					<dim>256</dim>
					<dim>128</dim>
					<dim>1</dim>
					<dim>1</dim>
				</port>
			</input>
			<output>
				<port id="2" precision="FP32">
					<dim>1</dim>
					<dim>256</dim>
					<dim>8</dim>
					<dim>32</dim>
				</port>
			</output>
		</layer>
		<layer id="227" name="Reshape_1712_compressed" type="Const" version="opset1">
			<data element_type="f16" offset="2456336" shape="1, 256, 1, 1" size="512"/>
			<output>
				<port id="0" precision="FP16">
					<dim>1</dim>
					<dim>256</dim>
					<dim>1</dim>
					<dim>1</dim>
				</port>
			</output>
		</layer>
		<layer id="228" name="Reshape_1712" type="Convert" version="opset1">
			<data destination_type="f32"/>
			<rt_info>
				<attribute name="decompression" version="0"/>
			</rt_info>
			<input>
				<port id="0" precision="FP16">
					<dim>1</dim>
					<dim>256</dim>
					<dim>1</dim>
					<dim>1</dim>
				</port>
			</input>
			<output>
				<port id="1" precision="FP32">
					<dim>1</dim>
					<dim>256</dim>
					<dim>1</dim>
					<dim>1</dim>
				</port>
			</output>
		</layer>
		<layer id="229" name="1129" type="Add" version="opset1">
			<data auto_broadcast="numpy"/>
			<rt_info>
				<attribute name="fused_names" value="1129, Concat_1711, Reshape_1712" version="0"/>
			</rt_info>
			<input>
				<port id="0" precision="FP32">
					<dim>1</dim>
					<dim>256</dim>
					<dim>8</dim>
					<dim>32</dim>
				</port>
				<port id="1" precision="FP32">
					<dim>1</dim>
					<dim>256</dim>
					<dim>1</dim>
					<dim>1</dim>
				</port>
			</input>
			<output>
				<port id="2" names="1129" precision="FP32">
					<dim>1</dim>
					<dim>256</dim>
					<dim>8</dim>
					<dim>32</dim>
				</port>
			</output>
		</layer>
		<layer id="230" name="535" type="ReLU" version="opset1">
			<rt_info>
				<attribute name="fused_names" value="535" version="0"/>
			</rt_info>
			<input>
				<port id="0" precision="FP32">
					<dim>1</dim>
					<dim>256</dim>
					<dim>8</dim>
					<dim>32</dim>
				</port>
			</input>
			<output>
				<port id="1" names="535" precision="FP32">
					<dim>1</dim>
					<dim>256</dim>
					<dim>8</dim>
					<dim>32</dim>
				</port>
			</output>
		</layer>
		<layer id="231" name="1133_compressed" type="Const" version="opset1">
			<data element_type="f16" offset="2456848" shape="256, 256, 3, 3" size="1179648"/>
			<output>
				<port id="0" precision="FP16">
					<dim>256</dim>
					<dim>256</dim>
					<dim>3</dim>
					<dim>3</dim>
				</port>
			</output>
		</layer>
		<layer id="232" name="1133" type="Convert" version="opset1">
			<data destination_type="f32"/>
			<rt_info>
				<attribute name="decompression" version="0"/>
				<attribute name="fused_names" value="1133" version="0"/>
			</rt_info>
			<input>
				<port id="0" precision="FP16">
					<dim>256</dim>
					<dim>256</dim>
					<dim>3</dim>
					<dim>3</dim>
				</port>
			</input>
			<output>
				<port id="1" names="1133" precision="FP32">
					<dim>256</dim>
					<dim>256</dim>
					<dim>3</dim>
					<dim>3</dim>
				</port>
			</output>
		</layer>
		<layer id="233" name="Convolution_1741" type="Convolution" version="opset1">
			<data auto_pad="explicit" dilations="1, 1" pads_begin="1, 1" pads_end="1, 1" strides="1, 1"/>
			<rt_info>
				<attribute name="fused_names" value="Convolution_1741" version="0"/>
			</rt_info>
			<input>
				<port id="0" precision="FP32">
					<dim>1</dim>
					<dim>256</dim>
					<dim>8</dim>
					<dim>32</dim>
				</port>
				<port id="1" precision="FP32">
					<dim>256</dim>
					<dim>256</dim>
					<dim>3</dim>
					<dim>3</dim>
				</port>
			</input>
			<output>
				<port id="2" precision="FP32">
					<dim>1</dim>
					<dim>256</dim>
					<dim>8</dim>
					<dim>32</dim>
				</port>
			</output>
		</layer>
		<layer id="234" name="Reshape_1761_compressed" type="Const" version="opset1">
			<data element_type="f16" offset="3636496" shape="1, 256, 1, 1" size="512"/>
			<output>
				<port id="0" precision="FP16">
					<dim>1</dim>
					<dim>256</dim>
					<dim>1</dim>
					<dim>1</dim>
				</port>
			</output>
		</layer>
		<layer id="235" name="Reshape_1761" type="Convert" version="opset1">
			<data destination_type="f32"/>
			<rt_info>
				<attribute name="decompression" version="0"/>
			</rt_info>
			<input>
				<port id="0" precision="FP16">
					<dim>1</dim>
					<dim>256</dim>
					<dim>1</dim>
					<dim>1</dim>
				</port>
			</input>
			<output>
				<port id="1" precision="FP32">
					<dim>1</dim>
					<dim>256</dim>
					<dim>1</dim>
					<dim>1</dim>
				</port>
			</output>
		</layer>
		<layer id="236" name="1132" type="Add" version="opset1">
			<data auto_broadcast="numpy"/>
			<rt_info>
				<attribute name="fused_names" value="1132, Concat_1760, Reshape_1761" version="0"/>
			</rt_info>
			<input>
				<port id="0" precision="FP32">
					<dim>1</dim>
					<dim>256</dim>
					<dim>8</dim>
					<dim>32</dim>
				</port>
				<port id="1" precision="FP32">
					<dim>1</dim>
					<dim>256</dim>
					<dim>1</dim>
					<dim>1</dim>
				</port>
			</input>
			<output>
				<port id="2" names="1132" precision="FP32">
					<dim>1</dim>
					<dim>256</dim>
					<dim>8</dim>
					<dim>32</dim>
				</port>
			</output>
		</layer>
		<layer id="237" name="1136_compressed" type="Const" version="opset1">
			<data element_type="f16" offset="3637008" shape="256, 128, 1, 1" size="65536"/>
			<output>
				<port id="0" precision="FP16">
					<dim>256</dim>
					<dim>128</dim>
					<dim>1</dim>
					<dim>1</dim>
				</port>
			</output>
		</layer>
		<layer id="238" name="1136" type="Convert" version="opset1">
			<data destination_type="f32"/>
			<rt_info>
				<attribute name="decompression" version="0"/>
				<attribute name="fused_names" value="1136" version="0"/>
			</rt_info>
			<input>
				<port id="0" precision="FP16">
					<dim>256</dim>
					<dim>128</dim>
					<dim>1</dim>
					<dim>1</dim>
				</port>
			</input>
			<output>
				<port id="1" names="1136" precision="FP32">
					<dim>256</dim>
					<dim>128</dim>
					<dim>1</dim>
					<dim>1</dim>
				</port>
			</output>
		</layer>
		<layer id="239" name="Convolution_1789" type="Convolution" version="opset1">
			<data auto_pad="explicit" dilations="1, 1" pads_begin="0, 0" pads_end="0, 0" strides="1, 1"/>
			<rt_info>
				<attribute name="fused_names" value="Convolution_1789" version="0"/>
			</rt_info>
			<input>
				<port id="0" precision="FP32">
					<dim>1</dim>
					<dim>128</dim>
					<dim>8</dim>
					<dim>32</dim>
				</port>
				<port id="1" precision="FP32">
					<dim>256</dim>
					<dim>128</dim>
					<dim>1</dim>
					<dim>1</dim>
				</port>
			</input>
			<output>
				<port id="2" precision="FP32">
					<dim>1</dim>
					<dim>256</dim>
					<dim>8</dim>
					<dim>32</dim>
				</port>
			</output>
		</layer>
		<layer id="240" name="Reshape_1809_compressed" type="Const" version="opset1">
			<data element_type="f16" offset="3702544" shape="1, 256, 1, 1" size="512"/>
			<output>
				<port id="0" precision="FP16">
					<dim>1</dim>
					<dim>256</dim>
					<dim>1</dim>
					<dim>1</dim>
				</port>
			</output>
		</layer>
		<layer id="241" name="Reshape_1809" type="Convert" version="opset1">
			<data destination_type="f32"/>
			<rt_info>
				<attribute name="decompression" version="0"/>
			</rt_info>
			<input>
				<port id="0" precision="FP16">
					<dim>1</dim>
					<dim>256</dim>
					<dim>1</dim>
					<dim>1</dim>
				</port>
			</input>
			<output>
				<port id="1" precision="FP32">
					<dim>1</dim>
					<dim>256</dim>
					<dim>1</dim>
					<dim>1</dim>
				</port>
			</output>
		</layer>
		<layer id="242" name="1135" type="Add" version="opset1">
			<data auto_broadcast="numpy"/>
			<rt_info>
				<attribute name="fused_names" value="1135, Concat_1808, Reshape_1809" version="0"/>
			</rt_info>
			<input>
				<port id="0" precision="FP32">
					<dim>1</dim>
					<dim>256</dim>
					<dim>8</dim>
					<dim>32</dim>
				</port>
				<port id="1" precision="FP32">
					<dim>1</dim>
					<dim>256</dim>
					<dim>1</dim>
					<dim>1</dim>
				</port>
			</input>
			<output>
				<port id="2" names="1135" precision="FP32">
					<dim>1</dim>
					<dim>256</dim>
					<dim>8</dim>
					<dim>32</dim>
				</port>
			</output>
		</layer>
		<layer id="243" name="540" type="Add" version="opset1">
			<data auto_broadcast="numpy"/>
			<rt_info>
				<attribute name="fused_names" value="540" version="0"/>
			</rt_info>
			<input>
				<port id="0" precision="FP32">
					<dim>1</dim>
					<dim>256</dim>
					<dim>8</dim>
					<dim>32</dim>
				</port>
				<port id="1" precision="FP32">
					<dim>1</dim>
					<dim>256</dim>
					<dim>8</dim>
					<dim>32</dim>
				</port>
			</input>
			<output>
				<port id="2" names="540" precision="FP32">
					<dim>1</dim>
					<dim>256</dim>
					<dim>8</dim>
					<dim>32</dim>
				</port>
			</output>
		</layer>
		<layer id="244" name="541" type="ReLU" version="opset1">
			<rt_info>
				<attribute name="fused_names" value="541" version="0"/>
			</rt_info>
			<input>
				<port id="0" precision="FP32">
					<dim>1</dim>
					<dim>256</dim>
					<dim>8</dim>
					<dim>32</dim>
				</port>
			</input>
			<output>
				<port id="1" names="541" precision="FP32">
					<dim>1</dim>
					<dim>256</dim>
					<dim>8</dim>
					<dim>32</dim>
				</port>
			</output>
		</layer>
		<layer id="245" name="1139_compressed" type="Const" version="opset1">
			<data element_type="f16" offset="3703056" shape="256, 256, 1, 1" size="131072"/>
			<output>
				<port id="0" precision="FP16">
					<dim>256</dim>
					<dim>256</dim>
					<dim>1</dim>
					<dim>1</dim>
				</port>
			</output>
		</layer>
		<layer id="246" name="1139" type="Convert" version="opset1">
			<data destination_type="f32"/>
			<rt_info>
				<attribute name="decompression" version="0"/>
				<attribute name="fused_names" value="1139" version="0"/>
			</rt_info>
			<input>
				<port id="0" precision="FP16">
					<dim>256</dim>
					<dim>256</dim>
					<dim>1</dim>
					<dim>1</dim>
				</port>
			</input>
			<output>
				<port id="1" names="1139" precision="FP32">
					<dim>256</dim>
					<dim>256</dim>
					<dim>1</dim>
					<dim>1</dim>
				</port>
			</output>
		</layer>
		<layer id="247" name="Convolution_1839" type="Convolution" version="opset1">
			<data auto_pad="explicit" dilations="1, 1" pads_begin="0, 0" pads_end="0, 0" strides="1, 1"/>
			<rt_info>
				<attribute name="fused_names" value="Convolution_1839" version="0"/>
			</rt_info>
			<input>
				<port id="0" precision="FP32">
					<dim>1</dim>
					<dim>256</dim>
					<dim>8</dim>
					<dim>32</dim>
				</port>
				<port id="1" precision="FP32">
					<dim>256</dim>
					<dim>256</dim>
					<dim>1</dim>
					<dim>1</dim>
				</port>
			</input>
			<output>
				<port id="2" precision="FP32">
					<dim>1</dim>
					<dim>256</dim>
					<dim>8</dim>
					<dim>32</dim>
				</port>
			</output>
		</layer>
		<layer id="248" name="Reshape_1859_compressed" type="Const" version="opset1">
			<data element_type="f16" offset="3834128" shape="1, 256, 1, 1" size="512"/>
			<output>
				<port id="0" precision="FP16">
					<dim>1</dim>
					<dim>256</dim>
					<dim>1</dim>
					<dim>1</dim>
				</port>
			</output>
		</layer>
		<layer id="249" name="Reshape_1859" type="Convert" version="opset1">
			<data destination_type="f32"/>
			<rt_info>
				<attribute name="decompression" version="0"/>
			</rt_info>
			<input>
				<port id="0" precision="FP16">
					<dim>1</dim>
					<dim>256</dim>
					<dim>1</dim>
					<dim>1</dim>
				</port>
			</input>
			<output>
				<port id="1" precision="FP32">
					<dim>1</dim>
					<dim>256</dim>
					<dim>1</dim>
					<dim>1</dim>
				</port>
			</output>
		</layer>
		<layer id="250" name="1138" type="Add" version="opset1">
			<data auto_broadcast="numpy"/>
			<rt_info>
				<attribute name="fused_names" value="1138, Concat_1858, Reshape_1859" version="0"/>
			</rt_info>
			<input>
				<port id="0" precision="FP32">
					<dim>1</dim>
					<dim>256</dim>
					<dim>8</dim>
					<dim>32</dim>
				</port>
				<port id="1" precision="FP32">
					<dim>1</dim>
					<dim>256</dim>
					<dim>1</dim>
					<dim>1</dim>
				</port>
			</input>
			<output>
				<port id="2" names="1138" precision="FP32">
					<dim>1</dim>
					<dim>256</dim>
					<dim>8</dim>
					<dim>32</dim>
				</port>
			</output>
		</layer>
		<layer id="251" name="544" type="ReLU" version="opset1">
			<rt_info>
				<attribute name="fused_names" value="544" version="0"/>
			</rt_info>
			<input>
				<port id="0" precision="FP32">
					<dim>1</dim>
					<dim>256</dim>
					<dim>8</dim>
					<dim>32</dim>
				</port>
			</input>
			<output>
				<port id="1" names="544" precision="FP32">
					<dim>1</dim>
					<dim>256</dim>
					<dim>8</dim>
					<dim>32</dim>
				</port>
			</output>
		</layer>
		<layer id="252" name="1142_compressed" type="Const" version="opset1">
			<data element_type="f16" offset="3834640" shape="256, 256, 3, 3" size="1179648"/>
			<output>
				<port id="0" precision="FP16">
					<dim>256</dim>
					<dim>256</dim>
					<dim>3</dim>
					<dim>3</dim>
				</port>
			</output>
		</layer>
		<layer id="253" name="1142" type="Convert" version="opset1">
			<data destination_type="f32"/>
			<rt_info>
				<attribute name="decompression" version="0"/>
				<attribute name="fused_names" value="1142" version="0"/>
			</rt_info>
			<input>
				<port id="0" precision="FP16">
					<dim>256</dim>
					<dim>256</dim>
					<dim>3</dim>
					<dim>3</dim>
				</port>
			</input>
			<output>
				<port id="1" names="1142" precision="FP32">
					<dim>256</dim>
					<dim>256</dim>
					<dim>3</dim>
					<dim>3</dim>
				</port>
			</output>
		</layer>
		<layer id="254" name="Convolution_1888" type="Convolution" version="opset1">
			<data auto_pad="explicit" dilations="1, 1" pads_begin="1, 1" pads_end="1, 1" strides="1, 1"/>
			<rt_info>
				<attribute name="fused_names" value="Convolution_1888" version="0"/>
			</rt_info>
			<input>
				<port id="0" precision="FP32">
					<dim>1</dim>
					<dim>256</dim>
					<dim>8</dim>
					<dim>32</dim>
				</port>
				<port id="1" precision="FP32">
					<dim>256</dim>
					<dim>256</dim>
					<dim>3</dim>
					<dim>3</dim>
				</port>
			</input>
			<output>
				<port id="2" precision="FP32">
					<dim>1</dim>
					<dim>256</dim>
					<dim>8</dim>
					<dim>32</dim>
				</port>
			</output>
		</layer>
		<layer id="255" name="Reshape_1908_compressed" type="Const" version="opset1">
			<data element_type="f16" offset="5014288" shape="1, 256, 1, 1" size="512"/>
			<output>
				<port id="0" precision="FP16">
					<dim>1</dim>
					<dim>256</dim>
					<dim>1</dim>
					<dim>1</dim>
				</port>
			</output>
		</layer>
		<layer id="256" name="Reshape_1908" type="Convert" version="opset1">
			<data destination_type="f32"/>
			<rt_info>
				<attribute name="decompression" version="0"/>
			</rt_info>
			<input>
				<port id="0" precision="FP16">
					<dim>1</dim>
					<dim>256</dim>
					<dim>1</dim>
					<dim>1</dim>
				</port>
			</input>
			<output>
				<port id="1" precision="FP32">
					<dim>1</dim>
					<dim>256</dim>
					<dim>1</dim>
					<dim>1</dim>
				</port>
			</output>
		</layer>
		<layer id="257" name="1141" type="Add" version="opset1">
			<data auto_broadcast="numpy"/>
			<rt_info>
				<attribute name="fused_names" value="1141, Concat_1907, Reshape_1908" version="0"/>
			</rt_info>
			<input>
				<port id="0" precision="FP32">
					<dim>1</dim>
					<dim>256</dim>
					<dim>8</dim>
					<dim>32</dim>
				</port>
				<port id="1" precision="FP32">
					<dim>1</dim>
					<dim>256</dim>
					<dim>1</dim>
					<dim>1</dim>
				</port>
			</input>
			<output>
				<port id="2" names="1141" precision="FP32">
					<dim>1</dim>
					<dim>256</dim>
					<dim>8</dim>
					<dim>32</dim>
				</port>
			</output>
		</layer>
		<layer id="258" name="547" type="Add" version="opset1">
			<data auto_broadcast="numpy"/>
			<rt_info>
				<attribute name="fused_names" value="547" version="0"/>
			</rt_info>
			<input>
				<port id="0" precision="FP32">
					<dim>1</dim>
					<dim>256</dim>
					<dim>8</dim>
					<dim>32</dim>
				</port>
				<port id="1" precision="FP32">
					<dim>1</dim>
					<dim>256</dim>
					<dim>8</dim>
					<dim>32</dim>
				</port>
			</input>
			<output>
				<port id="2" names="547" precision="FP32">
					<dim>1</dim>
					<dim>256</dim>
					<dim>8</dim>
					<dim>32</dim>
				</port>
			</output>
		</layer>
		<layer id="259" name="548" type="ReLU" version="opset1">
			<rt_info>
				<attribute name="fused_names" value="548" version="0"/>
			</rt_info>
			<input>
				<port id="0" precision="FP32">
					<dim>1</dim>
					<dim>256</dim>
					<dim>8</dim>
					<dim>32</dim>
				</port>
			</input>
			<output>
				<port id="1" names="548" precision="FP32">
					<dim>1</dim>
					<dim>256</dim>
					<dim>8</dim>
					<dim>32</dim>
				</port>
			</output>
		</layer>
		<layer id="260" name="1145_compressed" type="Const" version="opset1">
			<data element_type="f16" offset="5014800" shape="256, 256, 1, 1" size="131072"/>
			<output>
				<port id="0" precision="FP16">
					<dim>256</dim>
					<dim>256</dim>
					<dim>1</dim>
					<dim>1</dim>
				</port>
			</output>
		</layer>
		<layer id="261" name="1145" type="Convert" version="opset1">
			<data destination_type="f32"/>
			<rt_info>
				<attribute name="decompression" version="0"/>
				<attribute name="fused_names" value="1145" version="0"/>
			</rt_info>
			<input>
				<port id="0" precision="FP16">
					<dim>256</dim>
					<dim>256</dim>
					<dim>1</dim>
					<dim>1</dim>
				</port>
			</input>
			<output>
				<port id="1" names="1145" precision="FP32">
					<dim>256</dim>
					<dim>256</dim>
					<dim>1</dim>
					<dim>1</dim>
				</port>
			</output>
		</layer>
		<layer id="262" name="Convolution_1938" type="Convolution" version="opset1">
			<data auto_pad="explicit" dilations="1, 1" pads_begin="0, 0" pads_end="0, 0" strides="1, 1"/>
			<rt_info>
				<attribute name="fused_names" value="Convolution_1938" version="0"/>
			</rt_info>
			<input>
				<port id="0" precision="FP32">
					<dim>1</dim>
					<dim>256</dim>
					<dim>8</dim>
					<dim>32</dim>
				</port>
				<port id="1" precision="FP32">
					<dim>256</dim>
					<dim>256</dim>
					<dim>1</dim>
					<dim>1</dim>
				</port>
			</input>
			<output>
				<port id="2" precision="FP32">
					<dim>1</dim>
					<dim>256</dim>
					<dim>8</dim>
					<dim>32</dim>
				</port>
			</output>
		</layer>
		<layer id="263" name="Reshape_1958_compressed" type="Const" version="opset1">
			<data element_type="f16" offset="5145872" shape="1, 256, 1, 1" size="512"/>
			<output>
				<port id="0" precision="FP16">
					<dim>1</dim>
					<dim>256</dim>
					<dim>1</dim>
					<dim>1</dim>
				</port>
			</output>
		</layer>
		<layer id="264" name="Reshape_1958" type="Convert" version="opset1">
			<data destination_type="f32"/>
			<rt_info>
				<attribute name="decompression" version="0"/>
			</rt_info>
			<input>
				<port id="0" precision="FP16">
					<dim>1</dim>
					<dim>256</dim>
					<dim>1</dim>
					<dim>1</dim>
				</port>
			</input>
			<output>
				<port id="1" precision="FP32">
					<dim>1</dim>
					<dim>256</dim>
					<dim>1</dim>
					<dim>1</dim>
				</port>
			</output>
		</layer>
		<layer id="265" name="1144" type="Add" version="opset1">
			<data auto_broadcast="numpy"/>
			<rt_info>
				<attribute name="fused_names" value="1144, Concat_1957, Reshape_1958" version="0"/>
			</rt_info>
			<input>
				<port id="0" precision="FP32">
					<dim>1</dim>
					<dim>256</dim>
					<dim>8</dim>
					<dim>32</dim>
				</port>
				<port id="1" precision="FP32">
					<dim>1</dim>
					<dim>256</dim>
					<dim>1</dim>
					<dim>1</dim>
				</port>
			</input>
			<output>
				<port id="2" names="1144" precision="FP32">
					<dim>1</dim>
					<dim>256</dim>
					<dim>8</dim>
					<dim>32</dim>
				</port>
			</output>
		</layer>
		<layer id="266" name="551" type="ReLU" version="opset1">
			<rt_info>
				<attribute name="fused_names" value="551" version="0"/>
			</rt_info>
			<input>
				<port id="0" precision="FP32">
					<dim>1</dim>
					<dim>256</dim>
					<dim>8</dim>
					<dim>32</dim>
				</port>
			</input>
			<output>
				<port id="1" names="551" precision="FP32">
					<dim>1</dim>
					<dim>256</dim>
					<dim>8</dim>
					<dim>32</dim>
				</port>
			</output>
		</layer>
		<layer id="267" name="1148_compressed" type="Const" version="opset1">
			<data element_type="f16" offset="5146384" shape="256, 256, 3, 3" size="1179648"/>
			<output>
				<port id="0" precision="FP16">
					<dim>256</dim>
					<dim>256</dim>
					<dim>3</dim>
					<dim>3</dim>
				</port>
			</output>
		</layer>
		<layer id="268" name="1148" type="Convert" version="opset1">
			<data destination_type="f32"/>
			<rt_info>
				<attribute name="decompression" version="0"/>
				<attribute name="fused_names" value="1148" version="0"/>
			</rt_info>
			<input>
				<port id="0" precision="FP16">
					<dim>256</dim>
					<dim>256</dim>
					<dim>3</dim>
					<dim>3</dim>
				</port>
			</input>
			<output>
				<port id="1" names="1148" precision="FP32">
					<dim>256</dim>
					<dim>256</dim>
					<dim>3</dim>
					<dim>3</dim>
				</port>
			</output>
		</layer>
		<layer id="269" name="Convolution_1987" type="Convolution" version="opset1">
			<data auto_pad="explicit" dilations="1, 1" pads_begin="1, 1" pads_end="1, 1" strides="1, 1"/>
			<rt_info>
				<attribute name="fused_names" value="Convolution_1987" version="0"/>
			</rt_info>
			<input>
				<port id="0" precision="FP32">
					<dim>1</dim>
					<dim>256</dim>
					<dim>8</dim>
					<dim>32</dim>
				</port>
				<port id="1" precision="FP32">
					<dim>256</dim>
					<dim>256</dim>
					<dim>3</dim>
					<dim>3</dim>
				</port>
			</input>
			<output>
				<port id="2" precision="FP32">
					<dim>1</dim>
					<dim>256</dim>
					<dim>8</dim>
					<dim>32</dim>
				</port>
			</output>
		</layer>
		<layer id="270" name="Reshape_2007_compressed" type="Const" version="opset1">
			<data element_type="f16" offset="6326032" shape="1, 256, 1, 1" size="512"/>
			<output>
				<port id="0" precision="FP16">
					<dim>1</dim>
					<dim>256</dim>
					<dim>1</dim>
					<dim>1</dim>
				</port>
			</output>
		</layer>
		<layer id="271" name="Reshape_2007" type="Convert" version="opset1">
			<data destination_type="f32"/>
			<rt_info>
				<attribute name="decompression" version="0"/>
			</rt_info>
			<input>
				<port id="0" precision="FP16">
					<dim>1</dim>
					<dim>256</dim>
					<dim>1</dim>
					<dim>1</dim>
				</port>
			</input>
			<output>
				<port id="1" precision="FP32">
					<dim>1</dim>
					<dim>256</dim>
					<dim>1</dim>
					<dim>1</dim>
				</port>
			</output>
		</layer>
		<layer id="272" name="1147" type="Add" version="opset1">
			<data auto_broadcast="numpy"/>
			<rt_info>
				<attribute name="fused_names" value="1147, Concat_2006, Reshape_2007" version="0"/>
			</rt_info>
			<input>
				<port id="0" precision="FP32">
					<dim>1</dim>
					<dim>256</dim>
					<dim>8</dim>
					<dim>32</dim>
				</port>
				<port id="1" precision="FP32">
					<dim>1</dim>
					<dim>256</dim>
					<dim>1</dim>
					<dim>1</dim>
				</port>
			</input>
			<output>
				<port id="2" names="1147" precision="FP32">
					<dim>1</dim>
					<dim>256</dim>
					<dim>8</dim>
					<dim>32</dim>
				</port>
			</output>
		</layer>
		<layer id="273" name="554" type="Add" version="opset1">
			<data auto_broadcast="numpy"/>
			<rt_info>
				<attribute name="fused_names" value="554" version="0"/>
			</rt_info>
			<input>
				<port id="0" precision="FP32">
					<dim>1</dim>
					<dim>256</dim>
					<dim>8</dim>
					<dim>32</dim>
				</port>
				<port id="1" precision="FP32">
					<dim>1</dim>
					<dim>256</dim>
					<dim>8</dim>
					<dim>32</dim>
				</port>
			</input>
			<output>
				<port id="2" names="554" precision="FP32">
					<dim>1</dim>
					<dim>256</dim>
					<dim>8</dim>
					<dim>32</dim>
				</port>
			</output>
		</layer>
		<layer id="274" name="555" type="ReLU" version="opset1">
			<rt_info>
				<attribute name="fused_names" value="555" version="0"/>
			</rt_info>
			<input>
				<port id="0" precision="FP32">
					<dim>1</dim>
					<dim>256</dim>
					<dim>8</dim>
					<dim>32</dim>
				</port>
			</input>
			<output>
				<port id="1" names="555" precision="FP32">
					<dim>1</dim>
					<dim>256</dim>
					<dim>8</dim>
					<dim>32</dim>
				</port>
			</output>
		</layer>
		<layer id="275" name="1151_compressed" type="Const" version="opset1">
			<data element_type="f16" offset="6326544" shape="256, 256, 1, 1" size="131072"/>
			<output>
				<port id="0" precision="FP16">
					<dim>256</dim>
					<dim>256</dim>
					<dim>1</dim>
					<dim>1</dim>
				</port>
			</output>
		</layer>
		<layer id="276" name="1151" type="Convert" version="opset1">
			<data destination_type="f32"/>
			<rt_info>
				<attribute name="decompression" version="0"/>
				<attribute name="fused_names" value="1151" version="0"/>
			</rt_info>
			<input>
				<port id="0" precision="FP16">
					<dim>256</dim>
					<dim>256</dim>
					<dim>1</dim>
					<dim>1</dim>
				</port>
			</input>
			<output>
				<port id="1" names="1151" precision="FP32">
					<dim>256</dim>
					<dim>256</dim>
					<dim>1</dim>
					<dim>1</dim>
				</port>
			</output>
		</layer>
		<layer id="277" name="Convolution_2037" type="Convolution" version="opset1">
			<data auto_pad="explicit" dilations="1, 1" pads_begin="0, 0" pads_end="0, 0" strides="1, 1"/>
			<rt_info>
				<attribute name="fused_names" value="Convolution_2037" version="0"/>
			</rt_info>
			<input>
				<port id="0" precision="FP32">
					<dim>1</dim>
					<dim>256</dim>
					<dim>8</dim>
					<dim>32</dim>
				</port>
				<port id="1" precision="FP32">
					<dim>256</dim>
					<dim>256</dim>
					<dim>1</dim>
					<dim>1</dim>
				</port>
			</input>
			<output>
				<port id="2" precision="FP32">
					<dim>1</dim>
					<dim>256</dim>
					<dim>8</dim>
					<dim>32</dim>
				</port>
			</output>
		</layer>
		<layer id="278" name="Reshape_2057_compressed" type="Const" version="opset1">
			<data element_type="f16" offset="6457616" shape="1, 256, 1, 1" size="512"/>
			<output>
				<port id="0" precision="FP16">
					<dim>1</dim>
					<dim>256</dim>
					<dim>1</dim>
					<dim>1</dim>
				</port>
			</output>
		</layer>
		<layer id="279" name="Reshape_2057" type="Convert" version="opset1">
			<data destination_type="f32"/>
			<rt_info>
				<attribute name="decompression" version="0"/>
			</rt_info>
			<input>
				<port id="0" precision="FP16">
					<dim>1</dim>
					<dim>256</dim>
					<dim>1</dim>
					<dim>1</dim>
				</port>
			</input>
			<output>
				<port id="1" precision="FP32">
					<dim>1</dim>
					<dim>256</dim>
					<dim>1</dim>
					<dim>1</dim>
				</port>
			</output>
		</layer>
		<layer id="280" name="1150" type="Add" version="opset1">
			<data auto_broadcast="numpy"/>
			<rt_info>
				<attribute name="fused_names" value="1150, Concat_2056, Reshape_2057" version="0"/>
			</rt_info>
			<input>
				<port id="0" precision="FP32">
					<dim>1</dim>
					<dim>256</dim>
					<dim>8</dim>
					<dim>32</dim>
				</port>
				<port id="1" precision="FP32">
					<dim>1</dim>
					<dim>256</dim>
					<dim>1</dim>
					<dim>1</dim>
				</port>
			</input>
			<output>
				<port id="2" names="1150" precision="FP32">
					<dim>1</dim>
					<dim>256</dim>
					<dim>8</dim>
					<dim>32</dim>
				</port>
			</output>
		</layer>
		<layer id="281" name="558" type="ReLU" version="opset1">
			<rt_info>
				<attribute name="fused_names" value="558" version="0"/>
			</rt_info>
			<input>
				<port id="0" precision="FP32">
					<dim>1</dim>
					<dim>256</dim>
					<dim>8</dim>
					<dim>32</dim>
				</port>
			</input>
			<output>
				<port id="1" names="558" precision="FP32">
					<dim>1</dim>
					<dim>256</dim>
					<dim>8</dim>
					<dim>32</dim>
				</port>
			</output>
		</layer>
		<layer id="282" name="1154_compressed" type="Const" version="opset1">
			<data element_type="f16" offset="6458128" shape="256, 256, 3, 3" size="1179648"/>
			<output>
				<port id="0" precision="FP16">
					<dim>256</dim>
					<dim>256</dim>
					<dim>3</dim>
					<dim>3</dim>
				</port>
			</output>
		</layer>
		<layer id="283" name="1154" type="Convert" version="opset1">
			<data destination_type="f32"/>
			<rt_info>
				<attribute name="decompression" version="0"/>
				<attribute name="fused_names" value="1154" version="0"/>
			</rt_info>
			<input>
				<port id="0" precision="FP16">
					<dim>256</dim>
					<dim>256</dim>
					<dim>3</dim>
					<dim>3</dim>
				</port>
			</input>
			<output>
				<port id="1" names="1154" precision="FP32">
					<dim>256</dim>
					<dim>256</dim>
					<dim>3</dim>
					<dim>3</dim>
				</port>
			</output>
		</layer>
		<layer id="284" name="Convolution_2086" type="Convolution" version="opset1">
			<data auto_pad="explicit" dilations="1, 1" pads_begin="1, 1" pads_end="1, 1" strides="1, 1"/>
			<rt_info>
				<attribute name="fused_names" value="Convolution_2086" version="0"/>
			</rt_info>
			<input>
				<port id="0" precision="FP32">
					<dim>1</dim>
					<dim>256</dim>
					<dim>8</dim>
					<dim>32</dim>
				</port>
				<port id="1" precision="FP32">
					<dim>256</dim>
					<dim>256</dim>
					<dim>3</dim>
					<dim>3</dim>
				</port>
			</input>
			<output>
				<port id="2" precision="FP32">
					<dim>1</dim>
					<dim>256</dim>
					<dim>8</dim>
					<dim>32</dim>
				</port>
			</output>
		</layer>
		<layer id="285" name="Reshape_2106_compressed" type="Const" version="opset1">
			<data element_type="f16" offset="7637776" shape="1, 256, 1, 1" size="512"/>
			<output>
				<port id="0" precision="FP16">
					<dim>1</dim>
					<dim>256</dim>
					<dim>1</dim>
					<dim>1</dim>
				</port>
			</output>
		</layer>
		<layer id="286" name="Reshape_2106" type="Convert" version="opset1">
			<data destination_type="f32"/>
			<rt_info>
				<attribute name="decompression" version="0"/>
			</rt_info>
			<input>
				<port id="0" precision="FP16">
					<dim>1</dim>
					<dim>256</dim>
					<dim>1</dim>
					<dim>1</dim>
				</port>
			</input>
			<output>
				<port id="1" precision="FP32">
					<dim>1</dim>
					<dim>256</dim>
					<dim>1</dim>
					<dim>1</dim>
				</port>
			</output>
		</layer>
		<layer id="287" name="1153" type="Add" version="opset1">
			<data auto_broadcast="numpy"/>
			<rt_info>
				<attribute name="fused_names" value="1153, Concat_2105, Reshape_2106" version="0"/>
			</rt_info>
			<input>
				<port id="0" precision="FP32">
					<dim>1</dim>
					<dim>256</dim>
					<dim>8</dim>
					<dim>32</dim>
				</port>
				<port id="1" precision="FP32">
					<dim>1</dim>
					<dim>256</dim>
					<dim>1</dim>
					<dim>1</dim>
				</port>
			</input>
			<output>
				<port id="2" names="1153" precision="FP32">
					<dim>1</dim>
					<dim>256</dim>
					<dim>8</dim>
					<dim>32</dim>
				</port>
			</output>
		</layer>
		<layer id="288" name="561" type="Add" version="opset1">
			<data auto_broadcast="numpy"/>
			<rt_info>
				<attribute name="fused_names" value="561" version="0"/>
			</rt_info>
			<input>
				<port id="0" precision="FP32">
					<dim>1</dim>
					<dim>256</dim>
					<dim>8</dim>
					<dim>32</dim>
				</port>
				<port id="1" precision="FP32">
					<dim>1</dim>
					<dim>256</dim>
					<dim>8</dim>
					<dim>32</dim>
				</port>
			</input>
			<output>
				<port id="2" names="561" precision="FP32">
					<dim>1</dim>
					<dim>256</dim>
					<dim>8</dim>
					<dim>32</dim>
				</port>
			</output>
		</layer>
		<layer id="289" name="562" type="ReLU" version="opset1">
			<rt_info>
				<attribute name="fused_names" value="562" version="0"/>
			</rt_info>
			<input>
				<port id="0" precision="FP32">
					<dim>1</dim>
					<dim>256</dim>
					<dim>8</dim>
					<dim>32</dim>
				</port>
			</input>
			<output>
				<port id="1" names="562" precision="FP32">
					<dim>1</dim>
					<dim>256</dim>
					<dim>8</dim>
					<dim>32</dim>
				</port>
			</output>
		</layer>
		<layer id="290" name="1157_compressed" type="Const" version="opset1">
			<data element_type="f16" offset="7638288" shape="256, 256, 1, 1" size="131072"/>
			<output>
				<port id="0" precision="FP16">
					<dim>256</dim>
					<dim>256</dim>
					<dim>1</dim>
					<dim>1</dim>
				</port>
			</output>
		</layer>
		<layer id="291" name="1157" type="Convert" version="opset1">
			<data destination_type="f32"/>
			<rt_info>
				<attribute name="decompression" version="0"/>
				<attribute name="fused_names" value="1157" version="0"/>
			</rt_info>
			<input>
				<port id="0" precision="FP16">
					<dim>256</dim>
					<dim>256</dim>
					<dim>1</dim>
					<dim>1</dim>
				</port>
			</input>
			<output>
				<port id="1" names="1157" precision="FP32">
					<dim>256</dim>
					<dim>256</dim>
					<dim>1</dim>
					<dim>1</dim>
				</port>
			</output>
		</layer>
		<layer id="292" name="Convolution_2136" type="Convolution" version="opset1">
			<data auto_pad="explicit" dilations="1, 1" pads_begin="0, 0" pads_end="0, 0" strides="1, 1"/>
			<rt_info>
				<attribute name="fused_names" value="Convolution_2136" version="0"/>
			</rt_info>
			<input>
				<port id="0" precision="FP32">
					<dim>1</dim>
					<dim>256</dim>
					<dim>8</dim>
					<dim>32</dim>
				</port>
				<port id="1" precision="FP32">
					<dim>256</dim>
					<dim>256</dim>
					<dim>1</dim>
					<dim>1</dim>
				</port>
			</input>
			<output>
				<port id="2" precision="FP32">
					<dim>1</dim>
					<dim>256</dim>
					<dim>8</dim>
					<dim>32</dim>
				</port>
			</output>
		</layer>
		<layer id="293" name="Reshape_2156_compressed" type="Const" version="opset1">
			<data element_type="f16" offset="7769360" shape="1, 256, 1, 1" size="512"/>
			<output>
				<port id="0" precision="FP16">
					<dim>1</dim>
					<dim>256</dim>
					<dim>1</dim>
					<dim>1</dim>
				</port>
			</output>
		</layer>
		<layer id="294" name="Reshape_2156" type="Convert" version="opset1">
			<data destination_type="f32"/>
			<rt_info>
				<attribute name="decompression" version="0"/>
			</rt_info>
			<input>
				<port id="0" precision="FP16">
					<dim>1</dim>
					<dim>256</dim>
					<dim>1</dim>
					<dim>1</dim>
				</port>
			</input>
			<output>
				<port id="1" precision="FP32">
					<dim>1</dim>
					<dim>256</dim>
					<dim>1</dim>
					<dim>1</dim>
				</port>
			</output>
		</layer>
		<layer id="295" name="1156" type="Add" version="opset1">
			<data auto_broadcast="numpy"/>
			<rt_info>
				<attribute name="fused_names" value="1156, Concat_2155, Reshape_2156" version="0"/>
			</rt_info>
			<input>
				<port id="0" precision="FP32">
					<dim>1</dim>
					<dim>256</dim>
					<dim>8</dim>
					<dim>32</dim>
				</port>
				<port id="1" precision="FP32">
					<dim>1</dim>
					<dim>256</dim>
					<dim>1</dim>
					<dim>1</dim>
				</port>
			</input>
			<output>
				<port id="2" names="1156" precision="FP32">
					<dim>1</dim>
					<dim>256</dim>
					<dim>8</dim>
					<dim>32</dim>
				</port>
			</output>
		</layer>
		<layer id="296" name="565" type="ReLU" version="opset1">
			<rt_info>
				<attribute name="fused_names" value="565" version="0"/>
			</rt_info>
			<input>
				<port id="0" precision="FP32">
					<dim>1</dim>
					<dim>256</dim>
					<dim>8</dim>
					<dim>32</dim>
				</port>
			</input>
			<output>
				<port id="1" names="565" precision="FP32">
					<dim>1</dim>
					<dim>256</dim>
					<dim>8</dim>
					<dim>32</dim>
				</port>
			</output>
		</layer>
		<layer id="297" name="1160_compressed" type="Const" version="opset1">
			<data element_type="f16" offset="7769872" shape="256, 256, 3, 3" size="1179648"/>
			<output>
				<port id="0" precision="FP16">
					<dim>256</dim>
					<dim>256</dim>
					<dim>3</dim>
					<dim>3</dim>
				</port>
			</output>
		</layer>
		<layer id="298" name="1160" type="Convert" version="opset1">
			<data destination_type="f32"/>
			<rt_info>
				<attribute name="decompression" version="0"/>
				<attribute name="fused_names" value="1160" version="0"/>
			</rt_info>
			<input>
				<port id="0" precision="FP16">
					<dim>256</dim>
					<dim>256</dim>
					<dim>3</dim>
					<dim>3</dim>
				</port>
			</input>
			<output>
				<port id="1" names="1160" precision="FP32">
					<dim>256</dim>
					<dim>256</dim>
					<dim>3</dim>
					<dim>3</dim>
				</port>
			</output>
		</layer>
		<layer id="299" name="Convolution_2185" type="Convolution" version="opset1">
			<data auto_pad="explicit" dilations="1, 1" pads_begin="1, 1" pads_end="1, 1" strides="1, 1"/>
			<rt_info>
…
		<edge from-layer="245" from-port="0" to-layer="246" to-port="0"/>
		<edge from-layer="246" from-port="1" to-layer="247" to-port="1"/>
		<edge from-layer="247" from-port="2" to-layer="250" to-port="0"/>
		<edge from-layer="248" from-port="0" to-layer="249" to-port="0"/>
		<edge from-layer="249" from-port="1" to-layer="250" to-port="1"/>
		<edge from-layer="250" from-port="2" to-layer="251" to-port="0"/>
		<edge from-layer="251" from-port="1" to-layer="254" to-port="0"/>
		<edge from-layer="252" from-port="0" to-layer="253" to-port="0"/>
		<edge from-layer="253" from-port="1" to-layer="254" to-port="1"/>
		<edge from-layer="254" from-port="2" to-layer="257" to-port="0"/>
		<edge from-layer="255" from-port="0" to-layer="256" to-port="0"/>
		<edge from-layer="256" from-port="1" to-layer="257" to-port="1"/>
		<edge from-layer="257" from-port="2" to-layer="258" to-port="0"/>
		<edge from-layer="258" from-port="2" to-layer="259" to-port="0"/>
		<edge from-layer="259" from-port="1" to-layer="262" to-port="0"/>
		<edge from-layer="259" from-port="1" to-layer="273" to-port="1"/>
		<edge from-layer="260" from-port="0" to-layer="261" to-port="0"/>
		<edge from-layer="261" from-port="1" to-layer="262" to-port="1"/>
		<edge from-layer="262" from-port="2" to-layer="265" to-port="0"/>
		<edge from-layer="263" from-port="0" to-layer="264" to-port="0"/>
		<edge from-layer="264" from-port="1" to-layer="265" to-port="1"/>
		<edge from-layer="265" from-port="2" to-layer="266" to-port="0"/>
		<edge from-layer="266" from-port="1" to-layer="269" to-port="0"/>
		<edge from-layer="267" from-port="0" to-layer="268" to-port="0"/>
		<edge from-layer="268" from-port="1" to-layer="269" to-port="1"/>
		<edge from-layer="269" from-port="2" to-layer="272" to-port="0"/>
		<edge from-layer="270" from-port="0" to-layer="271" to-port="0"/>
		<edge from-layer="271" from-port="1" to-layer="272" to-port="1"/>
		<edge from-layer="272" from-port="2" to-layer="273" to-port="0"/>
		<edge from-layer="273" from-port="2" to-layer="274" to-port="0"/>
		<edge from-layer="274" from-port="1" to-layer="288" to-port="1"/>
		<edge from-layer="274" from-port="1" to-layer="277" to-port="0"/>
		<edge from-layer="275" from-port="0" to-layer="276" to-port="0"/>
		<edge from-layer="276" from-port="1" to-layer="277" to-port="1"/>
		<edge from-layer="277" from-port="2" to-layer="280" to-port="0"/>
		<edge from-layer="278" from-port="0" to-layer="279" to-port="0"/>
		<edge from-layer="279" from-port="1" to-layer="280" to-port="1"/>
		<edge from-layer="280" from-port="2" to-layer="281" to-port="0"/>
		<edge from-layer="281" from-port="1" to-layer="284" to-port="0"/>
		<edge from-layer="282" from-port="0" to-layer="283" to-port="0"/>
		<edge from-layer="283" from-port="1" to-layer="284" to-port="1"/>
		<edge from-layer="284" from-port="2" to-layer="287" to-port="0"/>
		<edge from-layer="285" from-port="0" to-layer="286" to-port="0"/>
		<edge from-layer="286" from-port="1" to-layer="287" to-port="1"/>
		<edge from-layer="287" from-port="2" to-layer="288" to-port="0"/>
		<edge from-layer="288" from-port="2" to-layer="289" to-port="0"/>
		<edge from-layer="289" from-port="1" to-layer="292" to-port="0"/>
		<edge from-layer="289" from-port="1" to-layer="303" to-port="1"/>
		<edge from-layer="290" from-port="0" to-layer="291" to-port="0"/>
		<edge from-layer="291" from-port="1" to-layer="292" to-port="1"/>
		<edge from-layer="292" from-port="2" to-layer="295" to-port="0"/>
		<edge from-layer="293" from-port="0" to-layer="294" to-port="0"/>
		<edge from-layer="294" from-port="1" to-layer="295" to-port="1"/>
		<edge from-layer="295" from-port="2" to-layer="296" to-port="0"/>
		<edge from-layer="296" from-port="1" to-layer="299" to-port="0"/>
		<edge from-layer="297" from-port="0" to-layer="298" to-port="0"/>
		<edge from-layer="298" from-port="1" to-layer="299" to-port="1"/>
		<edge from-layer="299" from-port="2" to-layer="302" to-port="0"/>
		<edge from-layer="300" from-port="0" to-layer="301" to-port="0"/>
		<edge from-layer="301" from-port="1" to-layer="302" to-port="1"/>
		<edge from-layer="302" from-port="2" to-layer="303" to-port="0"/>
		<edge from-layer="303" from-port="2" to-layer="304" to-port="0"/>
		<edge from-layer="304" from-port="1" to-layer="318" to-port="1"/>
		<edge from-layer="304" from-port="1" to-layer="307" to-port="0"/>
		<edge from-layer="305" from-port="0" to-layer="306" to-port="0"/>
		<edge from-layer="306" from-port="1" to-layer="307" to-port="1"/>
		<edge from-layer="307" from-port="2" to-layer="310" to-port="0"/>
		<edge from-layer="308" from-port="0" to-layer="309" to-port="0"/>
		<edge from-layer="309" from-port="1" to-layer="310" to-port="1"/>
		<edge from-layer="310" from-port="2" to-layer="311" to-port="0"/>
		<edge from-layer="311" from-port="1" to-layer="314" to-port="0"/>
		<edge from-layer="312" from-port="0" to-layer="313" to-port="0"/>
		<edge from-layer="313" from-port="1" to-layer="314" to-port="1"/>
		<edge from-layer="314" from-port="2" to-layer="317" to-port="0"/>
		<edge from-layer="315" from-port="0" to-layer="316" to-port="0"/>
		<edge from-layer="316" from-port="1" to-layer="317" to-port="1"/>
		<edge from-layer="317" from-port="2" to-layer="318" to-port="0"/>
		<edge from-layer="318" from-port="2" to-layer="319" to-port="0"/>
		<edge from-layer="319" from-port="1" to-layer="322" to-port="0"/>
		<edge from-layer="319" from-port="1" to-layer="335" to-port="0"/>
		<edge from-layer="320" from-port="0" to-layer="321" to-port="0"/>
		<edge from-layer="321" from-port="1" to-layer="322" to-port="1"/>
		<edge from-layer="322" from-port="2" to-layer="325" to-port="0"/>
		<edge from-layer="323" from-port="0" to-layer="324" to-port="0"/>
		<edge from-layer="324" from-port="1" to-layer="325" to-port="1"/>
		<edge from-layer="325" from-port="2" to-layer="326" to-port="0"/>
		<edge from-layer="326" from-port="1" to-layer="329" to-port="0"/>
		<edge from-layer="327" from-port="0" to-layer="328" to-port="0"/>
		<edge from-layer="328" from-port="1" to-layer="329" to-port="1"/>
		<edge from-layer="329" from-port="2" to-layer="332" to-port="0"/>
		<edge from-layer="330" from-port="0" to-layer="331" to-port="0"/>
		<edge from-layer="331" from-port="1" to-layer="332" to-port="1"/>
		<edge from-layer="332" from-port="2" to-layer="339" to-port="0"/>
		<edge from-layer="333" from-port="0" to-layer="334" to-port="0"/>
		<edge from-layer="334" from-port="1" to-layer="335" to-port="1"/>
		<edge from-layer="335" from-port="2" to-layer="338" to-port="0"/>
		<edge from-layer="336" from-port="0" to-layer="337" to-port="0"/>
		<edge from-layer="337" from-port="1" to-layer="338" to-port="1"/>
		<edge from-layer="338" from-port="2" to-layer="339" to-port="1"/>
		<edge from-layer="339" from-port="2" to-layer="340" to-port="0"/>
		<edge from-layer="340" from-port="1" to-layer="343" to-port="0"/>
		<edge from-layer="340" from-port="1" to-layer="354" to-port="1"/>
		<edge from-layer="341" from-port="0" to-layer="342" to-port="0"/>
		<edge from-layer="342" from-port="1" to-layer="343" to-port="1"/>
		<edge from-layer="343" from-port="2" to-layer="346" to-port="0"/>
		<edge from-layer="344" from-port="0" to-layer="345" to-port="0"/>
		<edge from-layer="345" from-port="1" to-layer="346" to-port="1"/>
		<edge from-layer="346" from-port="2" to-layer="347" to-port="0"/>
		<edge from-layer="347" from-port="1" to-layer="350" to-port="0"/>
		<edge from-layer="348" from-port="0" to-layer="349" to-port="0"/>
		<edge from-layer="349" from-port="1" to-layer="350" to-port="1"/>
		<edge from-layer="350" from-port="2" to-layer="353" to-port="0"/>
		<edge from-layer="351" from-port="0" to-layer="352" to-port="0"/>
		<edge from-layer="352" from-port="1" to-layer="353" to-port="1"/>
		<edge from-layer="353" from-port="2" to-layer="354" to-port="0"/>
		<edge from-layer="354" from-port="2" to-layer="355" to-port="0"/>
		<edge from-layer="355" from-port="1" to-layer="358" to-port="0"/>
		<edge from-layer="355" from-port="1" to-layer="369" to-port="1"/>
		<edge from-layer="356" from-port="0" to-layer="357" to-port="0"/>
		<edge from-layer="357" from-port="1" to-layer="358" to-port="1"/>
		<edge from-layer="358" from-port="2" to-layer="361" to-port="0"/>
		<edge from-layer="359" from-port="0" to-layer="360" to-port="0"/>
		<edge from-layer="360" from-port="1" to-layer="361" to-port="1"/>
		<edge from-layer="361" from-port="2" to-layer="362" to-port="0"/>
		<edge from-layer="362" from-port="1" to-layer="365" to-port="0"/>
		<edge from-layer="363" from-port="0" to-layer="364" to-port="0"/>
		<edge from-layer="364" from-port="1" to-layer="365" to-port="1"/>
		<edge from-layer="365" from-port="2" to-layer="368" to-port="0"/>
		<edge from-layer="366" from-port="0" to-layer="367" to-port="0"/>
		<edge from-layer="367" from-port="1" to-layer="368" to-port="1"/>
		<edge from-layer="368" from-port="2" to-layer="369" to-port="0"/>
		<edge from-layer="369" from-port="2" to-layer="370" to-port="0"/>
		<edge from-layer="370" from-port="1" to-layer="373" to-port="0"/>
		<edge from-layer="370" from-port="1" to-layer="372" to-port="0"/>
		<edge from-layer="371" from-port="0" to-layer="372" to-port="1"/>
		<edge from-layer="372" from-port="2" to-layer="379" to-port="0"/>
		<edge from-layer="373" from-port="1" to-layer="376" to-port="0"/>
		<edge from-layer="374" from-port="0" to-layer="376" to-port="1"/>
		<edge from-layer="375" from-port="0" to-layer="376" to-port="2"/>
		<edge from-layer="376" from-port="3" to-layer="378" to-port="0"/>
		<edge from-layer="377" from-port="0" to-layer="378" to-port="1"/>
		<edge from-layer="378" from-port="2" to-layer="379" to-port="1"/>
		<edge from-layer="379" from-port="2" to-layer="381" to-port="0"/>
		<edge from-layer="380" from-port="0" to-layer="381" to-port="1"/>
		<edge from-layer="381" from-port="2" to-layer="387" to-port="0"/>
		<edge from-layer="381" from-port="2" to-layer="395" to-port="0"/>
		<edge from-layer="382" from-port="0" to-layer="383" to-port="0"/>
		<edge from-layer="383" from-port="1" to-layer="394" to-port="0"/>
		<edge from-layer="384" from-port="0" to-layer="394" to-port="1"/>
		<edge from-layer="385" from-port="0" to-layer="392" to-port="0"/>
		<edge from-layer="386" from-port="0" to-layer="392" to-port="1"/>
		<edge from-layer="387" from-port="1" to-layer="390" to-port="0"/>
		<edge from-layer="388" from-port="0" to-layer="390" to-port="1"/>
		<edge from-layer="389" from-port="0" to-layer="390" to-port="2"/>
		<edge from-layer="390" from-port="3" to-layer="392" to-port="2"/>
		<edge from-layer="391" from-port="0" to-layer="392" to-port="3"/>
		<edge from-layer="392" from-port="4" to-layer="394" to-port="2"/>
		<edge from-layer="393" from-port="0" to-layer="394" to-port="3"/>
		<edge from-layer="394" from-port="4" to-layer="395" to-port="1"/>
		<edge from-layer="395" from-port="2" to-layer="503" to-port="1"/>
		<edge from-layer="395" from-port="2" to-layer="461" to-port="0"/>
		<edge from-layer="395" from-port="2" to-layer="421" to-port="0"/>
		<edge from-layer="395" from-port="2" to-layer="402" to-port="0"/>
		<edge from-layer="395" from-port="2" to-layer="398" to-port="0"/>
		<edge from-layer="396" from-port="0" to-layer="397" to-port="0"/>
		<edge from-layer="397" from-port="1" to-layer="398" to-port="1"/>
		<edge from-layer="398" from-port="2" to-layer="401" to-port="0"/>
		<edge from-layer="399" from-port="0" to-layer="400" to-port="0"/>
		<edge from-layer="400" from-port="1" to-layer="401" to-port="1"/>
		<edge from-layer="401" from-port="2" to-layer="409" to-port="0"/>
		<edge from-layer="402" from-port="1" to-layer="405" to-port="0"/>
		<edge from-layer="402" from-port="1" to-layer="467" to-port="0"/>
		<edge from-layer="402" from-port="1" to-layer="477" to-port="0"/>
		<edge from-layer="402" from-port="1" to-layer="485" to-port="0"/>
		<edge from-layer="402" from-port="1" to-layer="493" to-port="0"/>
		<edge from-layer="402" from-port="1" to-layer="415" to-port="0"/>
		<edge from-layer="402" from-port="1" to-layer="437" to-port="0"/>
		<edge from-layer="402" from-port="1" to-layer="427" to-port="0"/>
		<edge from-layer="403" from-port="0" to-layer="405" to-port="1"/>
		<edge from-layer="404" from-port="0" to-layer="405" to-port="2"/>
		<edge from-layer="405" from-port="3" to-layer="408" to-port="0"/>
		<edge from-layer="406" from-port="0" to-layer="408" to-port="1"/>
		<edge from-layer="407" from-port="0" to-layer="408" to-port="2"/>
		<edge from-layer="408" from-port="3" to-layer="409" to-port="1"/>
		<edge from-layer="409" from-port="2" to-layer="411" to-port="0"/>
		<edge from-layer="410" from-port="0" to-layer="411" to-port="1"/>
		<edge from-layer="411" from-port="2" to-layer="418" to-port="0"/>
		<edge from-layer="412" from-port="0" to-layer="417" to-port="0"/>
		<edge from-layer="413" from-port="0" to-layer="415" to-port="1"/>
		<edge from-layer="414" from-port="0" to-layer="415" to-port="2"/>
		<edge from-layer="415" from-port="3" to-layer="417" to-port="1"/>
		<edge from-layer="416" from-port="0" to-layer="417" to-port="2"/>
		<edge from-layer="417" from-port="3" to-layer="418" to-port="1"/>
		<edge from-layer="418" from-port="2" to-layer="446" to-port="0"/>
		<edge from-layer="419" from-port="0" to-layer="420" to-port="0"/>
		<edge from-layer="420" from-port="1" to-layer="421" to-port="1"/>
		<edge from-layer="421" from-port="2" to-layer="424" to-port="0"/>
		<edge from-layer="422" from-port="0" to-layer="423" to-port="0"/>
		<edge from-layer="423" from-port="1" to-layer="424" to-port="1"/>
		<edge from-layer="424" from-port="2" to-layer="431" to-port="0"/>
		<edge from-layer="425" from-port="0" to-layer="427" to-port="1"/>
		<edge from-layer="426" from-port="0" to-layer="427" to-port="2"/>
		<edge from-layer="427" from-port="3" to-layer="430" to-port="0"/>
		<edge from-layer="428" from-port="0" to-layer="430" to-port="1"/>
		<edge from-layer="429" from-port="0" to-layer="430" to-port="2"/>
		<edge from-layer="430" from-port="3" to-layer="431" to-port="1"/>
		<edge from-layer="431" from-port="2" to-layer="433" to-port="0"/>
		<edge from-layer="432" from-port="0" to-layer="433" to-port="1"/>
		<edge from-layer="433" from-port="2" to-layer="440" to-port="0"/>
		<edge from-layer="434" from-port="0" to-layer="439" to-port="0"/>
		<edge from-layer="435" from-port="0" to-layer="437" to-port="1"/>
		<edge from-layer="436" from-port="0" to-layer="437" to-port="2"/>
		<edge from-layer="437" from-port="3" to-layer="439" to-port="1"/>
		<edge from-layer="438" from-port="0" to-layer="439" to-port="2"/>
		<edge from-layer="439" from-port="3" to-layer="440" to-port="1"/>
		<edge from-layer="440" from-port="2" to-layer="442" to-port="0"/>
		<edge from-layer="441" from-port="0" to-layer="442" to-port="1"/>
		<edge from-layer="442" from-port="2" to-layer="445" to-port="0"/>
		<edge from-layer="443" from-port="0" to-layer="444" to-port="0"/>
		<edge from-layer="444" from-port="1" to-layer="445" to-port="1"/>
		<edge from-layer="445" from-port="2" to-layer="446" to-port="1"/>
		<edge from-layer="446" from-port="2" to-layer="456" to-port="0"/>
		<edge from-layer="446" from-port="2" to-layer="447" to-port="0"/>
		<edge from-layer="447" from-port="1" to-layer="451" to-port="0"/>
		<edge from-layer="447" from-port="1" to-layer="458" to-port="1"/>
		<edge from-layer="448" from-port="0" to-layer="451" to-port="1"/>
		<edge from-layer="449" from-port="0" to-layer="451" to-port="2"/>
		<edge from-layer="450" from-port="0" to-layer="451" to-port="3"/>
		<edge from-layer="451" from-port="4" to-layer="453" to-port="0"/>
		<edge from-layer="452" from-port="0" to-layer="453" to-port="1"/>
		<edge from-layer="453" from-port="2" to-layer="455" to-port="0"/>
		<edge from-layer="454" from-port="0" to-layer="455" to-port="1"/>
		<edge from-layer="455" from-port="2" to-layer="456" to-port="1"/>
		<edge from-layer="456" from-port="2" to-layer="457" to-port="0"/>
		<edge from-layer="457" from-port="1" to-layer="458" to-port="0"/>
		<edge from-layer="458" from-port="2" to-layer="481" to-port="0"/>
		<edge from-layer="459" from-port="0" to-layer="460" to-port="0"/>
		<edge from-layer="460" from-port="1" to-layer="461" to-port="1"/>
		<edge from-layer="461" from-port="2" to-layer="464" to-port="0"/>
		<edge from-layer="462" from-port="0" to-layer="463" to-port="0"/>
		<edge from-layer="463" from-port="1" to-layer="464" to-port="1"/>
		<edge from-layer="464" from-port="2" to-layer="471" to-port="0"/>
		<edge from-layer="465" from-port="0" to-layer="467" to-port="1"/>
		<edge from-layer="466" from-port="0" to-layer="467" to-port="2"/>
		<edge from-layer="467" from-port="3" to-layer="470" to-port="0"/>
		<edge from-layer="468" from-port="0" to-layer="470" to-port="1"/>
		<edge from-layer="469" from-port="0" to-layer="470" to-port="2"/>
		<edge from-layer="470" from-port="3" to-layer="471" to-port="1"/>
		<edge from-layer="471" from-port="2" to-layer="473" to-port="0"/>
		<edge from-layer="472" from-port="0" to-layer="473" to-port="1"/>
		<edge from-layer="473" from-port="2" to-layer="480" to-port="0"/>
		<edge from-layer="474" from-port="0" to-layer="479" to-port="0"/>
		<edge from-layer="475" from-port="0" to-layer="477" to-port="1"/>
		<edge from-layer="476" from-port="0" to-layer="477" to-port="2"/>
		<edge from-layer="477" from-port="3" to-layer="479" to-port="1"/>
		<edge from-layer="478" from-port="0" to-layer="479" to-port="2"/>
		<edge from-layer="479" from-port="3" to-layer="480" to-port="1"/>
		<edge from-layer="480" from-port="2" to-layer="481" to-port="1"/>
		<edge from-layer="481" from-port="2" to-layer="488" to-port="0"/>
		<edge from-layer="482" from-port="0" to-layer="487" to-port="0"/>
		<edge from-layer="483" from-port="0" to-layer="485" to-port="1"/>
		<edge from-layer="484" from-port="0" to-layer="485" to-port="2"/>
		<edge from-layer="485" from-port="3" to-layer="487" to-port="1"/>
		<edge from-layer="486" from-port="0" to-layer="487" to-port="2"/>
		<edge from-layer="487" from-port="3" to-layer="488" to-port="1"/>
		<edge from-layer="488" from-port="2" to-layer="490" to-port="0"/>
		<edge from-layer="489" from-port="0" to-layer="490" to-port="1"/>
		<edge from-layer="490" from-port="2" to-layer="496" to-port="0"/>
		<edge from-layer="491" from-port="0" to-layer="493" to-port="1"/>
		<edge from-layer="492" from-port="0" to-layer="493" to-port="2"/>
		<edge from-layer="493" from-port="3" to-layer="495" to-port="0"/>
		<edge from-layer="494" from-port="0" to-layer="495" to-port="1"/>
		<edge from-layer="495" from-port="2" to-layer="496" to-port="1"/>
		<edge from-layer="496" from-port="2" to-layer="499" to-port="0"/>
		<edge from-layer="497" from-port="0" to-layer="498" to-port="0"/>
		<edge from-layer="498" from-port="1" to-layer="499" to-port="1"/>
		<edge from-layer="499" from-port="2" to-layer="502" to-port="0"/>
		<edge from-layer="500" from-port="0" to-layer="501" to-port="0"/>
		<edge from-layer="501" from-port="1" to-layer="502" to-port="1"/>
		<edge from-layer="502" from-port="2" to-layer="503" to-port="0"/>
		<edge from-layer="503" from-port="2" to-layer="505" to-port="0"/>
		<edge from-layer="504" from-port="0" to-layer="505" to-port="1"/>
		<edge from-layer="505" from-port="2" to-layer="508" to-port="0"/>
		<edge from-layer="506" from-port="0" to-layer="507" to-port="0"/>
		<edge from-layer="507" from-port="1" to-layer="508" to-port="1"/>
		<edge from-layer="508" from-port="2" to-layer="511" to-port="0"/>
		<edge from-layer="509" from-port="0" to-layer="510" to-port="0"/>
		<edge from-layer="510" from-port="1" to-layer="511" to-port="1"/>
		<edge from-layer="511" from-port="2" to-layer="513" to-port="0"/>
		<edge from-layer="511" from-port="2" to-layer="529" to-port="1"/>
		<edge from-layer="512" from-port="0" to-layer="513" to-port="1"/>
		<edge from-layer="513" from-port="2" to-layer="516" to-port="0"/>
		<edge from-layer="514" from-port="0" to-layer="515" to-port="0"/>
		<edge from-layer="515" from-port="1" to-layer="516" to-port="1"/>
		<edge from-layer="516" from-port="2" to-layer="519" to-port="0"/>
		<edge from-layer="517" from-port="0" to-layer="518" to-port="0"/>
		<edge from-layer="518" from-port="1" to-layer="519" to-port="1"/>
		<edge from-layer="519" from-port="2" to-layer="520" to-port="0"/>
		<edge from-layer="520" from-port="1" to-layer="523" to-port="0"/>
		<edge from-layer="521" from-port="0" to-layer="522" to-port="0"/>
		<edge from-layer="522" from-port="1" to-layer="523" to-port="1"/>
		<edge from-layer="523" from-port="2" to-layer="526" to-port="0"/>
		<edge from-layer="524" from-port="0" to-layer="525" to-port="0"/>
		<edge from-layer="525" from-port="1" to-layer="526" to-port="1"/>
		<edge from-layer="526" from-port="2" to-layer="528" to-port="0"/>
		<edge from-layer="527" from-port="0" to-layer="528" to-port="1"/>
		<edge from-layer="528" from-port="2" to-layer="529" to-port="0"/>
		<edge from-layer="529" from-port="2" to-layer="531" to-port="0"/>
		<edge from-layer="530" from-port="0" to-layer="531" to-port="1"/>
		<edge from-layer="531" from-port="2" to-layer="534" to-port="0"/>
		<edge from-layer="532" from-port="0" to-layer="533" to-port="0"/>
		<edge from-layer="533" from-port="1" to-layer="534" to-port="1"/>
		<edge from-layer="534" from-port="2" to-layer="537" to-port="0"/>
		<edge from-layer="535" from-port="0" to-layer="536" to-port="0"/>
		<edge from-layer="536" from-port="1" to-layer="537" to-port="1"/>
		<edge from-layer="537" from-port="2" to-layer="563" to-port="0"/>
		<edge from-layer="537" from-port="2" to-layer="645" to-port="1"/>
		<edge from-layer="537" from-port="2" to-layer="603" to-port="0"/>
		<edge from-layer="537" from-port="2" to-layer="544" to-port="0"/>
		<edge from-layer="537" from-port="2" to-layer="540" to-port="0"/>
		<edge from-layer="538" from-port="0" to-layer="539" to-port="0"/>
		<edge from-layer="539" from-port="1" to-layer="540" to-port="1"/>
		<edge from-layer="540" from-port="2" to-layer="543" to-port="0"/>
		<edge from-layer="541" from-port="0" to-layer="542" to-port="0"/>
		<edge from-layer="542" from-port="1" to-layer="543" to-port="1"/>
		<edge from-layer="543" from-port="2" to-layer="551" to-port="0"/>
		<edge from-layer="544" from-port="1" to-layer="547" to-port="0"/>
		<edge from-layer="544" from-port="1" to-layer="569" to-port="0"/>
		<edge from-layer="544" from-port="1" to-layer="635" to-port="0"/>
		<edge from-layer="544" from-port="1" to-layer="627" to-port="0"/>
		<edge from-layer="544" from-port="1" to-layer="619" to-port="0"/>
		<edge from-layer="544" from-port="1" to-layer="609" to-port="0"/>
		<edge from-layer="544" from-port="1" to-layer="557" to-port="0"/>
		<edge from-layer="544" from-port="1" to-layer="579" to-port="0"/>
		<edge from-layer="545" from-port="0" to-layer="547" to-port="1"/>
		<edge from-layer="546" from-port="0" to-layer="547" to-port="2"/>
		<edge from-layer="547" from-port="3" to-layer="550" to-port="0"/>
		<edge from-layer="548" from-port="0" to-layer="550" to-port="1"/>
		<edge from-layer="549" from-port="0" to-layer="550" to-port="2"/>
		<edge from-layer="550" from-port="3" to-layer="551" to-port="1"/>
		<edge from-layer="551" from-port="2" to-layer="553" to-port="0"/>
		<edge from-layer="552" from-port="0" to-layer="553" to-port="1"/>
		<edge from-layer="553" from-port="2" to-layer="560" to-port="0"/>
		<edge from-layer="554" from-port="0" to-layer="559" to-port="0"/>
		<edge from-layer="555" from-port="0" to-layer="557" to-port="1"/>
		<edge from-layer="556" from-port="0" to-layer="557" to-port="2"/>
		<edge from-layer="557" from-port="3" to-layer="559" to-port="1"/>
		<edge from-layer="558" from-port="0" to-layer="559" to-port="2"/>
		<edge from-layer="559" from-port="3" to-layer="560" to-port="1"/>
		<edge from-layer="560" from-port="2" to-layer="588" to-port="0"/>
		<edge from-layer="561" from-port="0" to-layer="562" to-port="0"/>
		<edge from-layer="562" from-port="1" to-layer="563" to-port="1"/>
		<edge from-layer="563" from-port="2" to-layer="566" to-port="0"/>
		<edge from-layer="564" from-port="0" to-layer="565" to-port="0"/>
		<edge from-layer="565" from-port="1" to-layer="566" to-port="1"/>
		<edge from-layer="566" from-port="2" to-layer="573" to-port="0"/>
		<edge from-layer="567" from-port="0" to-layer="569" to-port="1"/>
		<edge from-layer="568" from-port="0" to-layer="569" to-port="2"/>
		<edge from-layer="569" from-port="3" to-layer="572" to-port="0"/>
		<edge from-layer="570" from-port="0" to-layer="572" to-port="1"/>
		<edge from-layer="571" from-port="0" to-layer="572" to-port="2"/>
		<edge from-layer="572" from-port="3" to-layer="573" to-port="1"/>
		<edge from-layer="573" from-port="2" to-layer="575" to-port="0"/>
		<edge from-layer="574" from-port="0" to-layer="575" to-port="1"/>
		<edge from-layer="575" from-port="2" to-layer="582" to-port="0"/>
		<edge from-layer="576" from-port="0" to-layer="581" to-port="0"/>
		<edge from-layer="577" from-port="0" to-layer="579" to-port="1"/>
		<edge from-layer="578" from-port="0" to-layer="579" to-port="2"/>
		<edge from-layer="579" from-port="3" to-layer="581" to-port="1"/>
		<edge from-layer="580" from-port="0" to-layer="581" to-port="2"/>
		<edge from-layer="581" from-port="3" to-layer="582" to-port="1"/>
		<edge from-layer="582" from-port="2" to-layer="584" to-port="0"/>
		<edge from-layer="583" from-port="0" to-layer="584" to-port="1"/>
		<edge from-layer="584" from-port="2" to-layer="587" to-port="0"/>
		<edge from-layer="585" from-port="0" to-layer="586" to-port="0"/>
		<edge from-layer="586" from-port="1" to-layer="587" to-port="1"/>
		<edge from-layer="587" from-port="2" to-layer="588" to-port="1"/>
		<edge from-layer="588" from-port="2" to-layer="598" to-port="0"/>
		<edge from-layer="588" from-port="2" to-layer="589" to-port="0"/>
		<edge from-layer="589" from-port="1" to-layer="600" to-port="1"/>
		<edge from-layer="589" from-port="1" to-layer="593" to-port="0"/>
		<edge from-layer="590" from-port="0" to-layer="593" to-port="1"/>
		<edge from-layer="591" from-port="0" to-layer="593" to-port="2"/>
		<edge from-layer="592" from-port="0" to-layer="593" to-port="3"/>
		<edge from-layer="593" from-port="4" to-layer="595" to-port="0"/>
		<edge from-layer="594" from-port="0" to-layer="595" to-port="1"/>
		<edge from-layer="595" from-port="2" to-layer="597" to-port="0"/>
		<edge from-layer="596" from-port="0" to-layer="597" to-port="1"/>
		<edge from-layer="597" from-port="2" to-layer="598" to-port="1"/>
		<edge from-layer="598" from-port="2" to-layer="599" to-port="0"/>
		<edge from-layer="599" from-port="1" to-layer="600" to-port="0"/>
		<edge from-layer="600" from-port="2" to-layer="623" to-port="0"/>
		<edge from-layer="601" from-port="0" to-layer="602" to-port="0"/>
		<edge from-layer="602" from-port="1" to-layer="603" to-port="1"/>
		<edge from-layer="603" from-port="2" to-layer="606" to-port="0"/>
		<edge from-layer="604" from-port="0" to-layer="605" to-port="0"/>
		<edge from-layer="605" from-port="1" to-layer="606" to-port="1"/>
		<edge from-layer="606" from-port="2" to-layer="613" to-port="0"/>
		<edge from-layer="607" from-port="0" to-layer="609" to-port="1"/>
		<edge from-layer="608" from-port="0" to-layer="609" to-port="2"/>
		<edge from-layer="609" from-port="3" to-layer="612" to-port="0"/>
		<edge from-layer="610" from-port="0" to-layer="612" to-port="1"/>
		<edge from-layer="611" from-port="0" to-layer="612" to-port="2"/>
		<edge from-layer="612" from-port="3" to-layer="613" to-port="1"/>
		<edge from-layer="613" from-port="2" to-layer="615" to-port="0"/>
		<edge from-layer="614" from-port="0" to-layer="615" to-port="1"/>
		<edge from-layer="615" from-port="2" to-layer="622" to-port="0"/>
		<edge from-layer="616" from-port="0" to-layer="621" to-port="0"/>
		<edge from-layer="617" from-port="0" to-layer="619" to-port="1"/>
		<edge from-layer="618" from-port="0" to-layer="619" to-port="2"/>
		<edge from-layer="619" from-port="3" to-layer="621" to-port="1"/>
		<edge from-layer="620" from-port="0" to-layer="621" to-port="2"/>
		<edge from-layer="621" from-port="3" to-layer="622" to-port="1"/>
		<edge from-layer="622" from-port="2" to-layer="623" to-port="1"/>
		<edge from-layer="623" from-port="2" to-layer="630" to-port="0"/>
		<edge from-layer="624" from-port="0" to-layer="629" to-port="0"/>
		<edge from-layer="625" from-port="0" to-layer="627" to-port="1"/>
		<edge from-layer="626" from-port="0" to-layer="627" to-port="2"/>
		<edge from-layer="627" from-port="3" to-layer="629" to-port="1"/>
		<edge from-layer="628" from-port="0" to-layer="629" to-port="2"/>
		<edge from-layer="629" from-port="3" to-layer="630" to-port="1"/>
		<edge from-layer="630" from-port="2" to-layer="632" to-port="0"/>
		<edge from-layer="631" from-port="0" to-layer="632" to-port="1"/>
		<edge from-layer="632" from-port="2" to-layer="638" to-port="0"/>
		<edge from-layer="633" from-port="0" to-layer="635" to-port="1"/>
		<edge from-layer="634" from-port="0" to-layer="635" to-port="2"/>
		<edge from-layer="635" from-port="3" to-layer="637" to-port="0"/>
		<edge from-layer="636" from-port="0" to-layer="637" to-port="1"/>
		<edge from-layer="637" from-port="2" to-layer="638" to-port="1"/>
		<edge from-layer="638" from-port="2" to-layer="641" to-port="0"/>
		<edge from-layer="639" from-port="0" to-layer="640" to-port="0"/>
		<edge from-layer="640" from-port="1" to-layer="641" to-port="1"/>
		<edge from-layer="641" from-port="2" to-layer="644" to-port="0"/>
		<edge from-layer="642" from-port="0" to-layer="643" to-port="0"/>
		<edge from-layer="643" from-port="1" to-layer="644" to-port="1"/>
		<edge from-layer="644" from-port="2" to-layer="645" to-port="0"/>
		<edge from-layer="645" from-port="2" to-layer="647" to-port="0"/>
		<edge from-layer="646" from-port="0" to-layer="647" to-port="1"/>
		<edge from-layer="647" from-port="2" to-layer="650" to-port="0"/>
		<edge from-layer="648" from-port="0" to-layer="649" to-port="0"/>
		<edge from-layer="649" from-port="1" to-layer="650" to-port="1"/>
		<edge from-layer="650" from-port="2" to-layer="653" to-port="0"/>
		<edge from-layer="651" from-port="0" to-layer="652" to-port="0"/>
		<edge from-layer="652" from-port="1" to-layer="653" to-port="1"/>
		<edge from-layer="653" from-port="2" to-layer="655" to-port="0"/>
		<edge from-layer="653" from-port="2" to-layer="671" to-port="1"/>
		<edge from-layer="654" from-port="0" to-layer="655" to-port="1"/>
		<edge from-layer="655" from-port="2" to-layer="658" to-port="0"/>
		<edge from-layer="656" from-port="0" to-layer="657" to-port="0"/>
		<edge from-layer="657" from-port="1" to-layer="658" to-port="1"/>
		<edge from-layer="658" from-port="2" to-layer="661" to-port="0"/>
		<edge from-layer="659" from-port="0" to-layer="660" to-port="0"/>
		<edge from-layer="660" from-port="1" to-layer="661" to-port="1"/>
		<edge from-layer="661" from-port="2" to-layer="662" to-port="0"/>
		<edge from-layer="662" from-port="1" to-layer="665" to-port="0"/>
		<edge from-layer="663" from-port="0" to-layer="664" to-port="0"/>
		<edge from-layer="664" from-port="1" to-layer="665" to-port="1"/>
		<edge from-layer="665" from-port="2" to-layer="668" to-port="0"/>
		<edge from-layer="666" from-port="0" to-layer="667" to-port="0"/>
		<edge from-layer="667" from-port="1" to-layer="668" to-port="1"/>
		<edge from-layer="668" from-port="2" to-layer="670" to-port="0"/>
		<edge from-layer="669" from-port="0" to-layer="670" to-port="1"/>
		<edge from-layer="670" from-port="2" to-layer="671" to-port="0"/>
		<edge from-layer="671" from-port="2" to-layer="673" to-port="0"/>
		<edge from-layer="672" from-port="0" to-layer="673" to-port="1"/>
		<edge from-layer="673" from-port="2" to-layer="676" to-port="0"/>
		<edge from-layer="674" from-port="0" to-layer="675" to-port="0"/>
		<edge from-layer="675" from-port="1" to-layer="676" to-port="1"/>
		<edge from-layer="676" from-port="2" to-layer="679" to-port="0"/>
		<edge from-layer="677" from-port="0" to-layer="678" to-port="0"/>
		<edge from-layer="678" from-port="1" to-layer="679" to-port="1"/>
		<edge from-layer="679" from-port="2" to-layer="787" to-port="1"/>
		<edge from-layer="679" from-port="2" to-layer="745" to-port="0"/>
		<edge from-layer="679" from-port="2" to-layer="705" to-port="0"/>
		<edge from-layer="679" from-port="2" to-layer="686" to-port="0"/>
		<edge from-layer="679" from-port="2" to-layer="682" to-port="0"/>
		<edge from-layer="680" from-port="0" to-layer="681" to-port="0"/>
		<edge from-layer="681" from-port="1" to-layer="682" to-port="1"/>
		<edge from-layer="682" from-port="2" to-layer="685" to-port="0"/>
		<edge from-layer="683" from-port="0" to-layer="684" to-port="0"/>
		<edge from-layer="684" from-port="1" to-layer="685" to-port="1"/>
		<edge from-layer="685" from-port="2" to-layer="693" to-port="0"/>
		<edge from-layer="686" from-port="1" to-layer="689" to-port="0"/>
		<edge from-layer="686" from-port="1" to-layer="751" to-port="0"/>
		<edge from-layer="686" from-port="1" to-layer="761" to-port="0"/>
		<edge from-layer="686" from-port="1" to-layer="769" to-port="0"/>
		<edge from-layer="686" from-port="1" to-layer="777" to-port="0"/>
		<edge from-layer="686" from-port="1" to-layer="721" to-port="0"/>
		<edge from-layer="686" from-port="1" to-layer="711" to-port="0"/>
		<edge from-layer="686" from-port="1" to-layer="699" to-port="0"/>
		<edge from-layer="687" from-port="0" to-layer="689" to-port="1"/>
		<edge from-layer="688" from-port="0" to-layer="689" to-port="2"/>
		<edge from-layer="689" from-port="3" to-layer="692" to-port="0"/>
		<edge from-layer="690" from-port="0" to-layer="692" to-port="1"/>
		<edge from-layer="691" from-port="0" to-layer="692" to-port="2"/>
		<edge from-layer="692" from-port="3" to-layer="693" to-port="1"/>
		<edge from-layer="693" from-port="2" to-layer="695" to-port="0"/>
		<edge from-layer="694" from-port="0" to-layer="695" to-port="1"/>
		<edge from-layer="695" from-port="2" to-layer="702" to-port="0"/>
		<edge from-layer="696" from-port="0" to-layer="701" to-port="0"/>
		<edge from-layer="697" from-port="0" to-layer="699" to-port="1"/>
		<edge from-layer="698" from-port="0" to-layer="699" to-port="2"/>
		<edge from-layer="699" from-port="3" to-layer="701" to-port="1"/>
		<edge from-layer="700" from-port="0" to-layer="701" to-port="2"/>
		<edge from-layer="701" from-port="3" to-layer="702" to-port="1"/>
		<edge from-layer="702" from-port="2" to-layer="730" to-port="0"/>
		<edge from-layer="703" from-port="0" to-layer="704" to-port="0"/>
		<edge from-layer="704" from-port="1" to-layer="705" to-port="1"/>
		<edge from-layer="705" from-port="2" to-layer="708" to-port="0"/>
		<edge from-layer="706" from-port="0" to-layer="707" to-port="0"/>
		<edge from-layer="707" from-port="1" to-layer="708" to-port="1"/>
		<edge from-layer="708" from-port="2" to-layer="715" to-port="0"/>
		<edge from-layer="709" from-port="0" to-layer="711" to-port="1"/>
		<edge from-layer="710" from-port="0" to-layer="711" to-port="2"/>
		<edge from-layer="711" from-port="3" to-layer="714" to-port="0"/>
		<edge from-layer="712" from-port="0" to-layer="714" to-port="1"/>
		<edge from-layer="713" from-port="0" to-layer="714" to-port="2"/>
		<edge from-layer="714" from-port="3" to-layer="715" to-port="1"/>
		<edge from-layer="715" from-port="2" to-layer="717" to-port="0"/>
		<edge from-layer="716" from-port="0" to-layer="717" to-port="1"/>
		<edge from-layer="717" from-port="2" to-layer="724" to-port="0"/>
		<edge from-layer="718" from-port="0" to-layer="723" to-port="0"/>
		<edge from-layer="719" from-port="0" to-layer="721" to-port="1"/>
		<edge from-layer="720" from-port="0" to-layer="721" to-port="2"/>
		<edge from-layer="721" from-port="3" to-layer="723" to-port="1"/>
		<edge from-layer="722" from-port="0" to-layer="723" to-port="2"/>
		<edge from-layer="723" from-port="3" to-layer="724" to-port="1"/>
		<edge from-layer="724" from-port="2" to-layer="726" to-port="0"/>
		<edge from-layer="725" from-port="0" to-layer="726" to-port="1"/>
		<edge from-layer="726" from-port="2" to-layer="729" to-port="0"/>
		<edge from-layer="727" from-port="0" to-layer="728" to-port="0"/>
		<edge from-layer="728" from-port="1" to-layer="729" to-port="1"/>
		<edge from-layer="729" from-port="2" to-layer="730" to-port="1"/>
		<edge from-layer="730" from-port="2" to-layer="740" to-port="0"/>
		<edge from-layer="730" from-port="2" to-layer="731" to-port="0"/>
		<edge from-layer="731" from-port="1" to-layer="742" to-port="1"/>
		<edge from-layer="731" from-port="1" to-layer="735" to-port="0"/>
		<edge from-layer="732" from-port="0" to-layer="735" to-port="1"/>
		<edge from-layer="733" from-port="0" to-layer="735" to-port="2"/>
		<edge from-layer="734" from-port="0" to-layer="735" to-port="3"/>
		<edge from-layer="735" from-port="4" to-layer="737" to-port="0"/>
		<edge from-layer="736" from-port="0" to-layer="737" to-port="1"/>
		<edge from-layer="737" from-port="2" to-layer="739" to-port="0"/>
		<edge from-layer="738" from-port="0" to-layer="739" to-port="1"/>
		<edge from-layer="739" from-port="2" to-layer="740" to-port="1"/>
		<edge from-layer="740" from-port="2" to-layer="741" to-port="0"/>
		<edge from-layer="741" from-port="1" to-layer="742" to-port="0"/>
		<edge from-layer="742" from-port="2" to-layer="765" to-port="0"/>
		<edge from-layer="743" from-port="0" to-layer="744" to-port="0"/>
		<edge from-layer="744" from-port="1" to-layer="745" to-port="1"/>
		<edge from-layer="745" from-port="2" to-layer="748" to-port="0"/>
		<edge from-layer="746" from-port="0" to-layer="747" to-port="0"/>
		<edge from-layer="747" from-port="1" to-layer="748" to-port="1"/>
		<edge from-layer="748" from-port="2" to-layer="755" to-port="0"/>
		<edge from-layer="749" from-port="0" to-layer="751" to-port="1"/>
		<edge from-layer="750" from-port="0" to-layer="751" to-port="2"/>
		<edge from-layer="751" from-port="3" to-layer="754" to-port="0"/>
		<edge from-layer="752" from-port="0" to-layer="754" to-port="1"/>
		<edge from-layer="753" from-port="0" to-layer="754" to-port="2"/>
		<edge from-layer="754" from-port="3" to-layer="755" to-port="1"/>
		<edge from-layer="755" from-port="2" to-layer="757" to-port="0"/>
		<edge from-layer="756" from-port="0" to-layer="757" to-port="1"/>
		<edge from-layer="757" from-port="2" to-layer="764" to-port="0"/>
		<edge from-layer="758" from-port="0" to-layer="763" to-port="0"/>
		<edge from-layer="759" from-port="0" to-layer="761" to-port="1"/>
		<edge from-layer="760" from-port="0" to-layer="761" to-port="2"/>
		<edge from-layer="761" from-port="3" to-layer="763" to-port="1"/>
		<edge from-layer="762" from-port="0" to-layer="763" to-port="2"/>
		<edge from-layer="763" from-port="3" to-layer="764" to-port="1"/>
		<edge from-layer="764" from-port="2" to-layer="765" to-port="1"/>
		<edge from-layer="765" from-port="2" to-layer="772" to-port="0"/>
		<edge from-layer="766" from-port="0" to-layer="771" to-port="0"/>
		<edge from-layer="767" from-port="0" to-layer="769" to-port="1"/>
		<edge from-layer="768" from-port="0" to-layer="769" to-port="2"/>
		<edge from-layer="769" from-port="3" to-layer="771" to-port="1"/>
		<edge from-layer="770" from-port="0" to-layer="771" to-port="2"/>
		<edge from-layer="771" from-port="3" to-layer="772" to-port="1"/>
		<edge from-layer="772" from-port="2" to-layer="774" to-port="0"/>
		<edge from-layer="773" from-port="0" to-layer="774" to-port="1"/>
		<edge from-layer="774" from-port="2" to-layer="780" to-port="0"/>
		<edge from-layer="775" from-port="0" to-layer="777" to-port="1"/>
		<edge from-layer="776" from-port="0" to-layer="777" to-port="2"/>
		<edge from-layer="777" from-port="3" to-layer="779" to-port="0"/>
		<edge from-layer="778" from-port="0" to-layer="779" to-port="1"/>
		<edge from-layer="779" from-port="2" to-layer="780" to-port="1"/>
		<edge from-layer="780" from-port="2" to-layer="783" to-port="0"/>
		<edge from-layer="781" from-port="0" to-layer="782" to-port="0"/>
		<edge from-layer="782" from-port="1" to-layer="783" to-port="1"/>
		<edge from-layer="783" from-port="2" to-layer="786" to-port="0"/>
		<edge from-layer="784" from-port="0" to-layer="785" to-port="0"/>
		<edge from-layer="785" from-port="1" to-layer="786" to-port="1"/>
		<edge from-layer="786" from-port="2" to-layer="787" to-port="0"/>
		<edge from-layer="787" from-port="2" to-layer="789" to-port="0"/>
		<edge from-layer="788" from-port="0" to-layer="789" to-port="1"/>
		<edge from-layer="789" from-port="2" to-layer="792" to-port="0"/>
		<edge from-layer="790" from-port="0" to-layer="791" to-port="0"/>
		<edge from-layer="791" from-port="1" to-layer="792" to-port="1"/>
		<edge from-layer="792" from-port="2" to-layer="795" to-port="0"/>
		<edge from-layer="793" from-port="0" to-layer="794" to-port="0"/>
		<edge from-layer="794" from-port="1" to-layer="795" to-port="1"/>
		<edge from-layer="795" from-port="2" to-layer="813" to-port="1"/>
		<edge from-layer="795" from-port="2" to-layer="797" to-port="0"/>
		<edge from-layer="796" from-port="0" to-layer="797" to-port="1"/>
		<edge from-layer="797" from-port="2" to-layer="800" to-port="0"/>
		<edge from-layer="798" from-port="0" to-layer="799" to-port="0"/>
		<edge from-layer="799" from-port="1" to-layer="800" to-port="1"/>
		<edge from-layer="800" from-port="2" to-layer="803" to-port="0"/>
		<edge from-layer="801" from-port="0" to-layer="802" to-port="0"/>
		<edge from-layer="802" from-port="1" to-layer="803" to-port="1"/>
		<edge from-layer="803" from-port="2" to-layer="804" to-port="0"/>
		<edge from-layer="804" from-port="1" to-layer="807" to-port="0"/>
		<edge from-layer="805" from-port="0" to-layer="806" to-port="0"/>
		<edge from-layer="806" from-port="1" to-layer="807" to-port="1"/>
		<edge from-layer="807" from-port="2" to-layer="810" to-port="0"/>
		<edge from-layer="808" from-port="0" to-layer="809" to-port="0"/>
		<edge from-layer="809" from-port="1" to-layer="810" to-port="1"/>
		<edge from-layer="810" from-port="2" to-layer="812" to-port="0"/>
		<edge from-layer="811" from-port="0" to-layer="812" to-port="1"/>
		<edge from-layer="812" from-port="2" to-layer="813" to-port="0"/>
		<edge from-layer="813" from-port="2" to-layer="815" to-port="0"/>
		<edge from-layer="814" from-port="0" to-layer="815" to-port="1"/>
		<edge from-layer="815" from-port="2" to-layer="818" to-port="0"/>
		<edge from-layer="816" from-port="0" to-layer="817" to-port="0"/>
		<edge from-layer="817" from-port="1" to-layer="818" to-port="1"/>
		<edge from-layer="818" from-port="2" to-layer="821" to-port="0"/>
		<edge from-layer="819" from-port="0" to-layer="820" to-port="0"/>
		<edge from-layer="820" from-port="1" to-layer="821" to-port="1"/>
		<edge from-layer="821" from-port="2" to-layer="823" to-port="0"/>
		<edge from-layer="822" from-port="0" to-layer="823" to-port="1"/>
		<edge from-layer="823" from-port="2" to-layer="826" to-port="0"/>
		<edge from-layer="824" from-port="0" to-layer="825" to-port="0"/>
		<edge from-layer="825" from-port="1" to-layer="826" to-port="1"/>
		<edge from-layer="826" from-port="2" to-layer="829" to-port="0"/>
		<edge from-layer="827" from-port="0" to-layer="828" to-port="0"/>
		<edge from-layer="828" from-port="1" to-layer="829" to-port="1"/>
		<edge from-layer="829" from-port="2" to-layer="857" to-port="0"/>
		<edge from-layer="829" from-port="2" to-layer="883" to-port="1"/>
		<edge from-layer="829" from-port="2" to-layer="830" to-port="0"/>
		<edge from-layer="830" from-port="1" to-layer="833" to-port="0"/>
		<edge from-layer="831" from-port="0" to-layer="833" to-port="1"/>
		<edge from-layer="832" from-port="0" to-layer="833" to-port="2"/>
		<edge from-layer="833" from-port="3" to-layer="835" to-port="0"/>
		<edge from-layer="834" from-port="0" to-layer="835" to-port="1"/>
		<edge from-layer="835" from-port="2" to-layer="837" to-port="0"/>
		<edge from-layer="836" from-port="0" to-layer="837" to-port="1"/>
		<edge from-layer="837" from-port="2" to-layer="839" to-port="0"/>
		<edge from-layer="837" from-port="2" to-layer="841" to-port="2"/>
		<edge from-layer="838" from-port="0" to-layer="839" to-port="1"/>
		<edge from-layer="839" from-port="2" to-layer="841" to-port="0"/>
		<edge from-layer="840" from-port="0" to-layer="841" to-port="1"/>
		<edge from-layer="841" from-port="3" to-layer="842" to-port="1"/>
		<edge from-layer="842" from-port="2" to-layer="844" to-port="1"/>
		<edge from-layer="843" from-port="0" to-layer="844" to-port="2"/>
		<edge from-layer="844" from-port="3" to-layer="846" to-port="0"/>
		<edge from-layer="845" from-port="0" to-layer="846" to-port="1"/>
		<edge from-layer="846" from-port="2" to-layer="849" to-port="0"/>
		<edge from-layer="847" from-port="0" to-layer="848" to-port="0"/>
		<edge from-layer="848" from-port="1" to-layer="849" to-port="1"/>
		<edge from-layer="849" from-port="2" to-layer="852" to-port="0"/>
		<edge from-layer="850" from-port="0" to-layer="851" to-port="0"/>
		<edge from-layer="851" from-port="1" to-layer="852" to-port="1"/>
		<edge from-layer="852" from-port="2" to-layer="854" to-port="0"/>
		<edge from-layer="853" from-port="0" to-layer="854" to-port="1"/>
		<edge from-layer="854" from-port="2" to-layer="861" to-port="0"/>
		<edge from-layer="855" from-port="0" to-layer="856" to-port="0"/>
		<edge from-layer="856" from-port="1" to-layer="857" to-port="1"/>
		<edge from-layer="857" from-port="2" to-layer="860" to-port="0"/>
		<edge from-layer="858" from-port="0" to-layer="859" to-port="0"/>
		<edge from-layer="859" from-port="1" to-layer="860" to-port="1"/>
		<edge from-layer="860" from-port="2" to-layer="861" to-port="1"/>
		<edge from-layer="861" from-port="2" to-layer="862" to-port="0"/>
		<edge from-layer="862" from-port="1" to-layer="865" to-port="0"/>
		<edge from-layer="863" from-port="0" to-layer="864" to-port="0"/>
		<edge from-layer="864" from-port="1" to-layer="865" to-port="1"/>
		<edge from-layer="865" from-port="2" to-layer="868" to-port="0"/>
		<edge from-layer="866" from-port="0" to-layer="867" to-port="0"/>
		<edge from-layer="867" from-port="1" to-layer="868" to-port="1"/>
		<edge from-layer="868" from-port="2" to-layer="870" to-port="0"/>
		<edge from-layer="869" from-port="0" to-layer="870" to-port="1"/>
		<edge from-layer="870" from-port="2" to-layer="871" to-port="0"/>
		<edge from-layer="870" from-port="2" to-layer="880" to-port="0"/>
		<edge from-layer="871" from-port="1" to-layer="875" to-port="0"/>
		<edge from-layer="871" from-port="1" to-layer="882" to-port="1"/>
		<edge from-layer="872" from-port="0" to-layer="875" to-port="1"/>
		<edge from-layer="873" from-port="0" to-layer="875" to-port="2"/>
		<edge from-layer="874" from-port="0" to-layer="875" to-port="3"/>
		<edge from-layer="875" from-port="4" to-layer="877" to-port="0"/>
		<edge from-layer="876" from-port="0" to-layer="877" to-port="1"/>
		<edge from-layer="877" from-port="2" to-layer="879" to-port="0"/>
		<edge from-layer="878" from-port="0" to-layer="879" to-port="1"/>
		<edge from-layer="879" from-port="2" to-layer="880" to-port="1"/>
		<edge from-layer="880" from-port="2" to-layer="881" to-port="0"/>
		<edge from-layer="881" from-port="1" to-layer="882" to-port="0"/>
		<edge from-layer="882" from-port="2" to-layer="883" to-port="0"/>
		<edge from-layer="883" from-port="2" to-layer="886" to-port="0"/>
		<edge from-layer="884" from-port="0" to-layer="885" to-port="0"/>
		<edge from-layer="885" from-port="1" to-layer="886" to-port="1"/>
		<edge from-layer="886" from-port="2" to-layer="889" to-port="0"/>
		<edge from-layer="887" from-port="0" to-layer="888" to-port="0"/>
		<edge from-layer="888" from-port="1" to-layer="889" to-port="1"/>
		<edge from-layer="889" from-port="2" to-layer="890" to-port="0"/>
		<edge from-layer="889" from-port="2" to-layer="891" to-port="0"/>
		<edge from-layer="889" from-port="2" to-layer="892" to-port="0"/>
		<edge from-layer="889" from-port="2" to-layer="893" to-port="0"/>
	</edges>
	<meta_data>
		<MO_version value="2022.1.0-7019-cdb9bec7210-releases/2022/1"/>
		<Runtime_version value="2022.1.0-7019-cdb9bec7210-releases/2022/1"/>
		<legacy_path value="False"/>
		<cli_parameters>
			<caffe_parser_path value="DIR"/>
			<compress_fp16 value="True"/>
			<data_type value="FP32"/>
			<disable_nhwc_to_nchw value="False"/>
			<disable_omitting_optional value="False"/>
			<disable_resnet_optimization value="False"/>
			<disable_weights_compression value="False"/>
			<enable_concat_optimization value="False"/>
			<enable_flattening_nested_params value="False"/>
			<enable_ssd_gluoncv value="False"/>
			<extensions value="DIR"/>
			<framework value="onnx"/>
			<freeze_placeholder_with_value value="{}"/>
			<input_model value="DIR/VisionLAN.onnx"/>
			<input_model_is_text value="False"/>
			<k value="DIR/CustomLayersMapping.xml"/>
			<layout value="()"/>
			<layout_values value="{}"/>
			<legacy_mxnet_model value="False"/>
			<log_level value="ERROR"/>
			<mean_scale_values value="{}"/>
			<mean_values value="()"/>
			<model_name value="VisionLAN"/>
			<output_dir value="DIR"/>
			<placeholder_data_types value="{}"/>
			<progress value="False"/>
			<remove_memory value="False"/>
			<remove_output_softmax value="False"/>
			<reverse_input_channels value="False"/>
			<save_params_from_nd value="False"/>
			<scale_values value="()"/>
			<silent value="False"/>
			<source_layout value="()"/>
			<static_shape value="False"/>
			<stream_output value="False"/>
			<target_layout value="()"/>
			<transform value=""/>
			<use_legacy_frontend value="False"/>
			<use_new_frontend value="False"/>
			<unset unset_cli_parameters="batch, counts, disable_fusing, finegrain_fusing, input, input_checkpoint, input_meta_graph, input_proto, input_shape, input_symbol, mean_file, mean_file_offsets, nd_prefix_name, output, placeholder_shapes, pretrained_model_name, saved_model_dir, saved_model_tags, scale, tensorboard_logdir, tensorflow_custom_layer_libraries, tensorflow_custom_operations_config_update, tensorflow_object_detection_api_pipeline_config, tensorflow_use_custom_operations_config, transformations_config"/>
		</cli_parameters>
	</meta_data>
</net>
